modell.pt (torch, 50405 bytes, 12 tensors)

cnn1.weight f4 [12, 6, 3]
000000 f5 b8 0e 3e 8f 66 d2 bd 96 eb 80 bd 70 ef 19 3e
       0.13937743 -0.10273468 -0.062949345 0.15032744
000010 6e e3 3e 3d aa 65 60 3e 60 0e 72 be e2 7d 06 3e
       0.046603613 0.21913782 -0.23638296 0.13133958
000020 e2 b8 80 be 8b 29 c1 bd dc ba 63 bb 77 03 9b 3c
       -0.25141054 -0.09431752 -0.0034748828 0.01892255
000030 2f 2c 0f 3c d6 ca 68 be 62 a9 27 be 42 bf cf bd
       0.0087385615 -0.22733626 -0.16373208 -0.101439014
000040 f5 7f 36 be 8b 29 56 3d a7 6f a3 3c 2f 15 99 bd
       -0.17822249 0.052285712 0.0199507 -0.074747436
000050 ff 84 0a 3e 61 bb b7 3d cf 1f 55 3d ae 6f 89 bd
       0.13527296 0.089712866 0.05203229 -0.06710754
000060 c8 15 2a 3e 02 60 52 3e 82 82 b4 bd fa 8b 4d be
       0.16609871 0.20544437 -0.08813955 -0.20072928
000070 54 16 39 3b 01 63 4a 3e 60 7d 32 bc 69 be 3a bd
       0.0028242068 0.1976433 -0.01089415 -0.045591746
000080 21 1d 08 be b2 16 7a be 36 05 ab 3d 1d ba 3b bd
       -0.13292362 -0.2442272 0.08350603 -0.04583179
000090 be b0 ca 3d 21 33 57 bd 4d d3 37 be b8 f0 0b 3b
       0.09896992 -0.052538995 -0.17951699 0.0021353196
0000a0 2d 28 46 bd 42 ef f4 3d 46 ca 49 be 9c 7e 9f bd
       -0.04837816 0.11959697 -0.19706067 -0.07787821
0000b0 10 c1 fc bc 89 2b 54 3e 05 af 26 3e f9 41 31 3e
       -0.030853778 0.20719732 0.16277702 0.17310323
0000c0 f2 8c 4d 3d 81 84 cf bd c7 62 2c 3e 92 fc c4 bd
       0.050183244 -0.10132695 0.16834556 -0.096184865
0000d0 27 d2 39 be 28 cc 65 3e 15 b7 9a 3d cb 50 46 be
       -0.18146573 0.2244116 0.075544514 -0.19366758
0000e0 01 8c d6 bc 9a 3b 77 3d c6 c9 02 3e 90 39 d2 bd
       -0.026189806 0.060359575 0.12772283 -0.102648854
0000f0 5d 43 3b 3e 0e 5f 7f 3e 30 21 07 3e 2b f9 5c 3e
       0.18287416 0.24938604 0.13196254 0.21579425
000100 20 ab 13 3e f4 77 33 3e a3 d0 5c 3e 34 a6 22 3e
       0.14420748 0.17526227 0.21563964 0.15883714
000110 d0 2e 36 be ce 7d d1 bd 1c 5e 87 3d 3e c7 44 bc
       -0.17791295 -0.102290735 0.06609747 -0.012010394
000120 ba 38 0a be 7b 81 27 be 0f d4 a8 bd f7 4c 98 3d
       -0.13498202 -0.16357987 -0.08243572 0.07436555
000130 7e 91 a6 3b 92 02 4f 3e e5 d2 c2 bd 84 05 f0 3d
       0.005083262 0.20215824 -0.09512881 0.11719802
000140 97 d7 ad bd 07 9f 64 bd cc 4d 5b 3e e7 ed 11 be
       -0.08488386 -0.055815723 0.21416396 -0.14250909
000150 20 04 14 bd 03 ac aa 3d 48 60 1a 3e 27 78 a5 bd
       -0.036136746 0.0833359 0.15075791 -0.08079558
000160 4b ab 69 3e f0 88 dc bd c5 33 43 be 35 9c 69 bc
       0.2281925 -0.10768306 -0.19062717 -0.014258434
000170 44 a5 05 bd 56 7d 29 3e 74 b8 4d be bf ce 97 3c
       -0.032628313 0.16551718 -0.20089895 0.018531201
000180 15 c9 78 3e 88 ea 01 be 66 28 3c 3e f6 e0 94 bd
       0.24295457 -0.12687123 0.18374786 -0.072694704
000190 95 59 da bd 5a 04 7d 3e 55 0a 6d be 0e 92 50 be
       -0.10661618 0.24708691 -0.23148473 -0.20368215
0001a0 bf 31 b8 3c 21 dc 5d be c0 3d 49 3d a2 1e 6f be
       0.022484658 -0.21666004 0.049131155 -0.23351529
0001b0 4b bd f8 bc 95 6b 87 bd 80 d8 3d 3e e3 b0 10 bd
       -0.0303637 -0.066123165 0.1853962 -0.035324942
0001c0 49 2d 82 3e 6a 8a e0 3b 9a ea 95 3b 3f b8 75 be
       0.25425175 0.0068524377 0.004575086 -0.23996066
0001d0 d3 cf f7 bd 1a c1 41 be e4 7f 92 be a3 20 e1 3d
       -0.12100186 -0.18921319 -0.28613198 0.10992553
0001e0 45 a4 dd 3d c4 c7 53 be 0c bd 87 3d d1 6b 37 be
       0.108223476 -0.20681673 0.06627855 -0.17912222
0001f0 cf 84 f9 3d 70 39 12 be f5 01 aa bd de 2f c1 bd
       0.12183534 -0.14279723 -0.083011545 -0.09432958
000200 ad f7 9c bd 3f bb 43 3e e9 04 f7 3d f9 10 6c be
       -0.07664428 0.19114397 0.120614834 -0.2305335
000210 83 65 9c 3d af 87 22 3d 66 d0 ac 3d 5f f8 84 bd
       0.07636549 0.03968018 0.08438186 -0.064926855
000220 ed e9 53 bd f9 07 86 be d3 a5 1e 3e 4e 1e 65 bd
       -0.05173676 -0.26177958 0.15492944 -0.055937104
000230 f6 33 d2 3d e6 06 13 bc 41 9f 9f 3d e3 9a 5d be
       0.10263817 -0.008973813 0.07794047 -0.21641116
000240 d3 2d 5d 3d 95 a8 8a 3d 23 76 23 bd 8e 55 56 be
       0.05399878 0.06770436 -0.039907586 -0.20931074
000250 5e 49 2b be 4b ae 79 3c 38 1d 28 be 84 d3 a6 be
       -0.16727206 0.015239309 -0.16417396 -0.3258325
000260 a8 7e 19 be 96 27 29 be 0a dc 2e be b1 c9 7e be
       -0.14989722 -0.16519007 -0.17076126 -0.24881627
000270 81 d8 62 3e a2 49 5e be 49 40 05 3e 7d c5 32 3e
       0.22152902 -0.21707776 0.13012804 0.17458148
000280 04 83 46 bd 24 15 05 be d5 24 a5 3d b0 18 03 be
       -0.04846479 -0.12996346 0.08063666 -0.12802386
000290 f0 0d 94 3c 4e c1 26 be 45 4c fb bd 93 32 01 be
       0.018073052 -0.16284677 -0.12270407 -0.12616949
0002a0 b4 a2 29 3e 6f e7 59 bd 2c 9b 1e be b1 74 85 3c
       0.16565973 -0.053199228 -0.15488881 0.016290994
0002b0 45 cc 53 be e0 2a 03 be 00 84 77 bd e5 de ce bd
       -0.20683391 -0.12809324 -0.06042862 -0.101011075
0002c0 34 5b 26 3e e2 4f 20 3e 67 ed 27 3e 52 8b 2d 3d
       0.16245729 0.15655473 0.16399156 0.042369194
0002d0 c1 80 68 be f3 61 1a 3e 5c f4 f5 bc 6b 10 98 3d
       -0.22705366 0.15076427 -0.030023746 0.074250065
0002e0 fc 75 bd 3a 02 00 6c 3e aa 1a 0b be c9 9a 8b 3e
       0.0014454718 0.23046878 -0.1358439 0.2726653
0002f0 bf 01 8a bd 3e 5d b0 3d da 1c 77 bd 66 9f 1e 3e
       -0.06738614 0.086115345 -0.06033025 0.15490493
000300 a0 a9 64 be 62 a0 24 bd d6 bc 8e bd f1 36 1e 3e
       -0.22330332 -0.040192015 -0.06969611 0.15450646
000310 91 9d 87 3e 8d db c8 3d 4b a9 1c 3d 2b 65 46 3e
       0.264874 0.09807501 0.038247388 0.1937453
000320 1c 6c 21 3c 9b c9 4b 3d 6b 7a 2e 3e 3b ff 91 be
       0.009852435 0.049752813 0.17038886 -0.28515038
000330 45 ee 52 3e 90 a9 96 3e 7a c4 f2 3d 8b 1c db 3d
       0.20598705 0.2942624 0.11853881 0.106988035
000340 b0 97 6e 3e 37 58 5f be 72 9e 0c be a6 88 9a bc
       0.23300052 -0.21810995 -0.13732317 -0.018863987
000350 9d 7d 46 be 52 20 35 be d7 86 30 3e ad 9b f3 bd
       -0.19383855 -0.1768811 0.17238937 -0.11894927

cnn1.bias f4 [12]
000000 4b 2b ea bd 46 71 d8 3d f3 3e ec 39 cc 25 01 bd
       -0.11434039 0.1056848 0.0004506033 -0.031530187
000010 ec c8 2b bb 5f ec d8 3d f6 1b 96 bd 32 53 11 be
       -0.0026212288 0.10591959 -0.07329552 -0.14191893
000020 2c 8e 4b be 4f 26 2c be 26 84 79 be ba 00 9d bd
       -0.19878453 -0.16811489 -0.24366817 -0.07666154

cnn2.weight f4 [24, 12, 3]
000000 63 2e 5a 3d 39 1c 69 bd de 7f 13 be c7 ef a9 3d
       0.053266894 -0.05691168 -0.14404246 0.08297687
000010 2e 85 e6 3d b1 0b 79 3d 9f 4a 68 3d 3a 61 66 3d
       0.11255871 0.060802165 0.05671179 0.056245066
000020 3e 05 60 bd 2b 92 67 bd 17 1a 01 be 55 6b 81 3d
       -0.0546925 -0.05653588 -0.12607609 0.063193
000030 86 fd dd bd c8 1c 06 3e ff 9d 05 bd b4 c2 bf 3d
       -0.108393714 0.13096917 -0.03262138 0.093633085
000040 80 04 f8 3d 4c 88 cc 3d 7f 82 9c 3d 30 34 ba bb
       0.12110233 0.09986934 0.07642078 -0.0056824908
000050 68 dd 2f 3e 1a 67 86 3d f3 fb da 3d 78 71 ac bc
       0.17174304 0.06562634 0.10692587 -0.0210502
000060 75 3d 72 3d d0 a7 88 3d 51 7c a3 3d 32 da 83 bd
       0.05914064 0.06672633 0.07982696 -0.06438102
000070 35 cd a6 3d 59 00 e8 3d 53 9c d0 3d 72 a5 09 3e
       0.08144609 0.11328191 0.101860665 0.13442019
000080 1f 2d a9 3c 40 30 28 bd d7 d1 9d bd 8f 59 e3 3d
       0.020651398 -0.04106164 -0.077060394 0.11101066
000090 71 60 8e 3d 69 e2 28 be 9b b2 05 be 22 d8 92 3d
       0.069519885 -0.16492619 -0.13056414 0.0717013
0000a0 e3 df 27 be 93 3c 2a 3d 28 ea e7 bc 50 ee 49 bd
       -0.16394 0.041561674 -0.028309897 -0.049299538
0000b0 08 1f 05 be 24 af 80 3b a7 47 01 3e 7a 95 1a 3c
       -0.13000119 0.0039271284 0.1262499 0.009435052
0000c0 17 d1 0c be 5d 55 2c be 1f 09 53 bd 6a 2f 2d be
       -0.13751636 -0.16829439 -0.05152237 -0.16912618
0000d0 f1 a6 db 3c 4b 8e 00 bd ee 67 74 3d 58 55 09 bd
       0.026813002 -0.0313857 0.059669428 -0.033528656
0000e0 c7 31 45 be 14 63 7a bc 2c 4d 19 bd ca 7a e8 3d
       -0.1925727 -0.015282411 -0.037427112 0.11351545
0000f0 29 e2 86 bd 55 07 0b 3d ac 04 c9 3c d7 58 85 3d
       -0.065861054 0.03394254 0.02453836 0.065110855
000100 8e 24 22 be 5e 57 21 be 00 af f4 3b ef b6 2c 3d
       -0.15834257 -0.15755984 0.0074671507 0.042166647
000110 52 fe f9 3d a3 dd 0e 3e a6 34 22 be cb be d0 3c
       0.12206711 0.13951735 -0.15840396 0.025481602
000120 2e 11 00 3e 0c 18 ba 3d 42 95 19 3e 59 05 ba 3c
       0.12506554 0.09086618 0.14998344 0.022707628
000130 63 11 27 be 8d 36 22 be c6 96 f2 bd 41 99 a7 bd
       -0.16315226 -0.15841122 -0.11845164 -0.08183528
000140 63 a9 8a 3d 04 cd 58 3d fd d4 27 be ba 7a 0a be
       0.06770589 0.052929893 -0.16389842 -0.13523379
000150 b8 0e 0c 3c 89 f4 13 3e 5b 73 ce 3d 92 b0 64 3d
       0.008548431 0.14448752 0.10080596 0.055832453
000160 27 b1 9d 3d ae 17 98 bd 2f e9 ce bd 33 10 d5 3d
       0.07699805 -0.074263915 -0.1010307 0.104034804
000170 1c 9c 1d bd 6e 89 83 bd 27 8d a3 3d 47 c9 43 3c
       -0.038478956 -0.06422697 0.07985907 0.011949844
000180 58 9c ea bc 89 cf ba bb 07 ca ec bd 3d 50 74 3d
       -0.028639004 -0.0057010096 -0.11561971 0.059646834
000190 0a 6b da 3d 05 db 77 3c 62 63 05 3e 01 c5 c2 3c
       0.10664947 0.015127902 0.13026193 0.02377558
0001a0 56 44 26 3d 76 21 9c bd 6c 43 cc 3d 02 42 90 bd
       0.040592514 -0.0762357 0.09973797 -0.0704384
0001b0 7d d9 0d bd 55 d5 9e 3c b5 11 0c be fa 78 f7 3d
       -0.03463124 0.019388834 -0.1367863 0.12083621
0001c0 c4 ec b1 bd 90 08 1f 3e 51 3d 8f 3d b3 a5 2a 3e
       -0.086877376 0.1553061 0.06994117 0.16664772
0001d0 80 1f d0 bd 2a ed 80 bb 5d 7a 5e bc 53 74 52 bd
       -0.10162258 -0.003934522 -0.013578978 -0.051380467
0001e0 17 3f 23 bd 71 d2 5d bd 71 90 26 3e bf 79 8e 3c
       -0.03985509 -0.05415577 0.16266038 0.017392037
0001f0 92 1e 2c 3e e8 5c d9 bd 39 ee 35 3e cf 5f d8 3d
       0.16808537 -0.106134236 0.17766656 0.10565149
000200 7b 41 1f 3d 3f 2f 86 3d 6e 16 00 be 60 3b 16 bd
       0.038880806 0.0655198 -0.12508556 -0.03667772
000210 d3 e5 ae bb 0f 57 37 3e 5a 60 19 3e 14 05 9b bd
       -0.005337456 0.17904304 0.14978161 -0.07569328
000220 3f dc b7 3d a3 76 07 bd 0b f3 6a bd dd 34 26 3e
       0.089775555 -0.033072125 -0.05736069 0.16231103
000230 4b 7e 34 3e 7a 7f 58 3c 9d 2f ac 3c 9a df 72 3c
       0.17626302 0.0132139865 0.021018798 0.014823819
000240 7f 20 cc bc a3 a8 74 3d 4f 4d 86 3d 2e ed 0e be
       -0.02491784 0.059731137 0.06557714 -0.13957664
000250 db 15 8d 3d cd 68 f0 3c 6e e7 3e 3e c9 a5 25 be
       0.06888934 0.029346848 0.18642971 -0.16176523
000260 ef 64 4c 3d ad f5 01 3e cd e1 44 3d f2 97 93 bd
       0.049900945 0.12691374 0.048066903 -0.07206716
000270 4f 0d 0b bd 07 fb ae bc 7b 5a b4 bd 6c 08 07 3d
       -0.03394824 -0.021359934 -0.0880632 0.032967016
000280 46 60 03 3d c5 91 b6 3d 8b 19 4a 3e fa b2 27 3e
       0.032074235 0.08914522 0.19736306 0.16376868
000290 61 a0 34 3e e2 f4 1c 3e d3 2c 5c 3e 1b a2 e4 bc
       0.17639305 0.1532779 0.21501474 -0.02790933
0002a0 70 f7 fc bc 01 2a 37 3e 7b 72 32 3e db c7 ec bd
       -0.030879706 0.17887117 0.17426483 -0.11561557
0002b0 05 03 1e 3e 28 90 1c 3e 61 76 97 bd ee c3 2f 3e
       0.1543084 0.15289366 -0.07395626 0.17164585
0002c0 0b 3a ef bd 49 13 07 3e 7d 81 03 3e c8 60 f9 bd
       -0.11680993 0.1319095 0.12842365 -0.12176663
0002d0 1c 15 1d 3e 20 e6 83 bc 98 44 04 3e fd bb cf bd
       0.15340084 -0.016100943 0.12916791 -0.10143278
0002e0 89 b7 27 be 5e 2e fb 3d de dd d0 3d 40 a9 f5 bd
       -0.16378607 0.12264703 0.10198568 -0.119951725
0002f0 72 7b 80 3d f1 4c 83 bc 05 13 95 bd c1 0a e1 bd
       0.06273545 -0.0160279 -0.07279018 -0.10988379
000300 5f 3c 57 3d 84 9c a8 3d c0 bd b2 bc 06 e1 13 3e
       0.05254781 0.08232978 -0.021818995 0.14441308
000310 e1 71 90 3d 6a f0 24 be 57 a4 44 bc bb 36 cb bd
       0.07052971 -0.16107336 -0.012002072 -0.099225484
000320 5c 98 a9 3c 98 c2 79 bd 1f c6 8d bd 33 05 d4 3d
       0.020702533 -0.060976595 -0.06922554 0.10352554
000330 7e 60 b2 bb d5 b6 2b 3d f3 b2 0c be 3e fd 30 3e
       -0.0054436317 0.04192241 -0.13740139 0.17284104
000340 77 c3 f1 3d 5a a5 e7 bd 5c b6 a9 bd 56 0f 2a 3c
       0.1180486 -0.11310835 -0.082867354 0.010379633
000350 50 1d 14 bd 04 ff ea 3d b7 45 48 bd a2 a9 9a bc
       -0.036160767 0.114744216 -0.04889461 -0.018879715
000360 fe cb 99 3d 58 45 42 be f5 82 8a 3c b6 da 06 3e
       0.075096115 -0.18971765 0.016908148 0.13169369
000370 f9 60 cd 3c ec 68 31 3e e5 7c 0c 3e 1a 13 c2 bd
       0.025070654 0.17325181 0.13719518 -0.094762996
000380 2a 3f 2f bd 6c a1 23 3e d8 01 1b 3e d0 f6 27 3e
       -0.042784847 0.15979546 0.15137422 0.16402745
000390 1b 46 9e bd 2e 55 b9 bc 34 9d 90 3d 93 b3 f8 bd
       -0.07728215 -0.022623625 0.07061234 -0.12143626
0003a0 b3 d4 a2 3d 92 86 2d 3d ab fb 3f 3d 06 60 0e 3e
       0.079507254 0.042364664 0.04687087 0.13903818
0003b0 d0 47 a0 bc 1f 39 80 3c 11 4c 85 bc f4 8c 92 3d
       -0.019565493 0.015652237 -0.016271623 0.07155791
0003c0 f2 07 1c be 99 15 ec bd c5 10 af bd b4 76 4a 3e
       -0.15237406 -0.11527557 -0.085481204 0.19771844
0003d0 a0 2f 8b 3d 58 81 ae bd 0b 81 2f bb df 25 11 3e
       0.06796193 -0.08520764 -0.0026779796 0.14174603
0003e0 d4 ea 1e 3e 5e c5 2e 3d 43 ea 50 bc 60 8e d4 3d
       0.15519267 0.042668693 -0.012751165 0.103787184
0003f0 41 0e 03 3e 00 dd 87 3d 5a b4 24 be 85 08 1c 3d
       0.12798406 0.06633949 -0.16084424 0.038094062

cnn2.bias f4 [24]
000000 bb f2 35 3e 8d 74 9c 3c 2d c8 f2 3c 1c 3b 5f 3b
       0.17768376 0.019098544 0.029636467 0.0034062332
000010 c4 8a 1f be 42 2e b8 bd a6 55 f3 3d 03 94 50 3e
       -0.15580279 -0.08993198 0.118815705 0.20368962
000020 73 fe 31 3e 72 06 ae 3d 1c 38 3d bd 9b e3 e1 3d
       0.17382221 0.08497323 -0.04619609 0.110297404
000030 a1 c5 10 3e f6 58 88 bc b2 a4 bd bd 2a 42 09 be
       0.1413789 -0.016643982 -0.09259929 -0.13404146
000040 4c 6e ae 3d f1 1d c1 bd 45 b6 79 3d 1f b7 32 bd
       0.08517131 -0.09429539 0.06096484 -0.04363167
000050 a8 07 93 bd d7 68 a4 bb 5f 78 8d bd fa 6d fb bd
       -0.07179195 -0.0050173807 -0.069077246 -0.12276836

cnn3.weight f4 [48, 24, 3]
000000 f4 9a 1a 3d 8d 72 72 3d f8 fa 5d 3d dc 62 c3 3a
       0.03774543 0.059191275 0.05419442 0.0014906782
000010 49 ab 80 bd 2a 83 dd bd ed 53 cc 3b 42 ae 92 bd
       -0.0628267 -0.10816033 0.0062355907 -0.07162143
000020 d0 93 13 bd 75 bf d5 3c d7 e6 dc 3d 74 12 8d 3c
       -0.036029637 0.02609227 0.10786217 0.017220713
000030 1e 84 ab 3d 11 4a ee bc b7 d3 fe 3d 8f cd ab bd
       0.08374809 -0.029088052 0.12442725 -0.083888166
000040 bb e0 87 bd c5 31 bc bd 83 3b 8f 3d 8b 42 97 3d
       -0.06634661 -0.0918918 0.06993773 0.07385739
000050 29 bc 45 3d dd 23 b0 bb 56 b3 5c bd 13 c2 09 bc
       0.048275147 -0.005375369 -0.053881966 -0.008408087
000060 f2 0e 33 bc 8f 3f 8f 3c 9d 4d df bd 61 ce 33 bc
       -0.010928856 0.017486362 -0.109034754 -0.0109744975
000070 a2 23 0d bd 23 fc 5c 3d 5e 61 10 3c 57 3f cd 3c
       -0.03445781 0.053951394 0.008812277 0.025054617
000080 72 79 14 3d 52 d8 4a bd 7c 62 b7 3c 05 33 3d 3c
       0.03624863 -0.049522705 0.022385828 0.011547809
000090 10 4b 36 bd 3d 20 5b bd 5e 94 2a bd bc 01 2e bd
       -0.04450518 -0.05349754 -0.0416454 -0.042482123
0000a0 90 ab 08 bd 27 8a a1 3d d7 9e 32 be 2d 6b bf bd
       -0.03336674 0.078876786 -0.17443405 -0.09346614
0000b0 97 8c 4b bd fd 69 85 bd 3e e3 aa 3d 3d 5d 72 bc
       -0.049694624 -0.06514356 0.08344124 -0.014792738
0000c0 47 6f 11 3d 4e 3c 34 bd 13 53 d0 bc 87 5d 08 3d
       0.035506513 -0.044002824 -0.025430238 0.03329232
0000d0 7b 29 7a 3d 4b 64 5f 3d 3a d4 35 3d 57 8d b3 bd
       0.061074715 0.054539006 0.04439185 -0.08767193
0000e0 8e 5f 51 bd 36 74 a5 bd d8 d3 82 bc 9e 0b 1e bd
       -0.05111652 -0.08078806 -0.015970156 -0.038585298
0000f0 42 f2 a0 bb bd de c1 3d fa a5 e0 bd b8 0c 08 3d
       -0.004911692 0.09466312 -0.109691575 0.033215255
000100 3b 88 9d 3c 51 b3 53 bd 20 96 58 bd 3c cf d3 bd
       0.019229999 -0.05168468 -0.052877545 -0.10342261
000110 79 9b 37 be 08 0f 8d 3b 81 6e 05 bd 1e a4 84 3d
       -0.17930402 0.0043047704 -0.032576088 0.06476615
000120 69 17 6d bd 62 36 0f bd 26 09 3a 3d eb 7e 27 bd
       -0.057883654 -0.034963973 0.04541888 -0.040892523
000130 5e 92 82 bd 4e 26 c8 bd b5 5a 62 bd d5 b4 92 bd
       -0.063755736 -0.09772931 -0.055262286 -0.07163397
000140 3f 8f fe 3c 5b de 45 bc 4c 07 c7 bd 7d 80 9e bd
       0.031074164 -0.012076939 -0.09718189 -0.07739351
000150 f6 9c 3f 3d 37 4c 96 3d 36 0c b5 bc 81 38 aa 3d
       0.04678055 0.073387556 -0.02210055 0.083115585
000160 bb 29 41 3c 2c 53 19 3e 63 09 dd bd 80 02 a6 bc
       0.0117897345 0.14973134 -0.10792806 -0.020264864
000170 da 22 5a 3d 5a 99 98 3c 45 cb 3a bc b5 80 af 3d
       0.053255893 0.018627811 -0.011401002 0.08569471
000180 2e dc ea 3d bb a5 ba bd f9 45 06 3e aa db 01 3e
       0.11467777 -0.09113642 0.1311263 0.12681451
000190 76 74 c1 bc 13 2c 41 bd 3f 6b 85 3d 6e cd 0a be
       -0.023615103 -0.047161173 0.06514596 -0.13554928
0001a0 39 93 91 bd e1 dd a4 3d 00 9c 29 3d d8 fd a8 3d
       -0.071081586 0.080501325 0.04140854 0.08251542
0001b0 ae aa bb bd 16 6a 3a 3d 92 19 97 bd 31 c5 9c 3d
       -0.09163414 0.045511328 -0.07377924 0.07654799
0001c0 32 6f 96 bb 78 a2 a7 bd 0a b0 23 3d 76 e9 fe bc
       -0.0045908922 -0.08185285 0.039962806 -0.031117182
0001d0 0d 94 a4 bd db db e9 bc 81 38 8b 3d 34 75 a4 bc
       -0.08036051 -0.028547218 0.06797887 -0.020075418
0001e0 46 1b 8e bd c2 8a c6 bd c5 23 0b 3d 91 8a 08 3e
       -0.06938796 -0.09694435 0.03396966 0.13334109
0001f0 db a4 04 bd a8 d1 be 3d 9a 14 36 3c 1a e8 a9 3d
       -0.03238378 0.093173325 0.01111331 0.08296223
000200 5d 0a 1d 3d 44 9b e0 3d db 15 3a 3d 50 b0 97 bd
       0.03833996 0.109671146 0.045431 -0.07406676
000210 c0 23 0e 3b f1 c9 02 3e e5 7f c5 3d ec 6e 66 bc
       0.002168879 0.12772347 0.096435346 -0.014064532
000220 5a 05 96 bd 2b 56 f5 3c a1 e0 f2 3d 39 61 8c 3d
       -0.073252395 0.029948315 0.11859251 0.06854481
000230 e1 fe c5 3d d3 fa 18 3e ca 19 b4 3d 1b a3 9e 3d
       0.09667755 0.14939432 0.087939814 0.07745954
000240 94 da 8b bd 21 9c e5 3d b6 cd ec bd 35 05 c2 3c
       -0.068288 0.1121142 -0.11562674 0.023684124
000250 86 18 6f 3d 78 17 02 3d ca 82 87 3d 9f 34 a9 bd
       0.058372997 0.031760663 0.06616743 -0.0826199
000260 13 3f 2d bd 3e ee 26 bd 71 7f b8 bc e5 19 11 bd
       -0.04229648 -0.04075455 -0.022521706 -0.035425086
000270 84 77 e6 3d 24 c5 9d 3d a5 08 e6 3d 68 65 71 3d
       0.112532645 0.07703617 0.112321176 0.0589346
000280 00 57 2a 3d 75 4c a5 bd dd 2d bc 3d 57 17 b4 3d
       0.041586876 -0.08071224 0.09188435 0.08793514
000290 e5 4c 11 bd 77 79 a1 bc 43 0c c8 bd 1a 9d ee bc
       -0.035473723 -0.01971124 -0.09767964 -0.029127646
0002a0 53 fa 14 bc f1 e3 df bd 17 48 88 ba fe 2d a3 3b
       -0.009092885 -0.10932148 -0.0010397461 0.004979848
0002b0 8c ca cf 3c c6 09 65 bb 71 80 80 3d b0 7d 67 bd
       0.025365137 -0.0034948452 0.06274498 -0.05651635
0002c0 e2 4d a2 3d d9 ba 39 bc a3 3f fe 3c f2 68 96 3d
       0.07925011 -0.011336052 0.031036204 0.073442355
0002d0 e8 39 73 3d 51 81 b5 3d 1a 44 8e 3d b9 7e e1 b9
       0.059381396 0.08862556 0.06946583 -0.0004300976
0002e0 54 ea e5 3c e6 66 8c 3c d1 41 9b bd fc aa 14 be
       0.028065838 0.01713891 -0.07580913 -0.1451835
0002f0 6a 92 f4 3c ad d1 07 3d 5e 5b 13 3d be 17 07 be
       0.029854972 0.033158947 0.035975806 -0.1319265
000300 3d 67 e8 3d e2 3d 9a bd b5 5c ef 3c cc 53 31 3d
       0.11347816 -0.075313345 0.02921901 0.043292806
000310 63 5b c1 bb 30 33 53 bd f2 48 d1 3d ad 3b d6 3d
       -0.0059007867 -0.051562488 0.10218991 0.10460601
000320 bc 89 8d 3d 02 5a 04 3c 6a 22 2f 3d 18 81 0d 3e
       0.06911036 0.0080781 0.04275743 0.13818777
000330 42 a4 72 3d 90 7a cc bd fa 30 83 bd 18 63 14 bc
       0.05923868 -0.099843144 -0.06405826 -0.009056829
000340 9d da 9e 3a e4 2b 5c bd 35 75 45 bd 6f 52 7d 3d
       0.0012119595 -0.053752795 -0.04820748 0.061846193
000350 8a eb 1a be 61 b5 67 bb da 00 79 bd d8 a2 d2 bd
       -0.15128914 -0.0035355913 -0.060791828 -0.10284966
000360 c5 cd fc 3d 1f 32 93 3d c2 a6 d3 3d 85 f4 02 bd
       0.12343935 0.07187294 0.10334541 -0.031971473
000370 57 b2 b0 bd 8c a0 82 3d 8f c4 02 be 16 e9 8e 3c
       -0.086277656 0.06378278 -0.12770294 0.017445128
000380 e1 78 df 3d e8 97 10 3e 32 95 ae bd b7 a6 e7 3d
       0.10911728 0.14120448 -0.085245505 0.11311095
000390 2d 27 be 3d 6d a8 1a 3d 68 9f 19 3e fc 8a b3 bd
       0.09284816 0.03775828 0.15002215 -0.087667435
0003a0 a2 54 fe 3d 90 a8 84 3d 84 58 ff 3d b3 f1 eb bd
       0.12418486 0.06477463 0.12468055 -0.1152071
0003b0 15 2e 91 bd 6a 46 f7 bc cd b5 d5 3c 93 42 ce bd
       -0.070888676 -0.030184943 0.026087666 -0.10071292
0003c0 a0 30 e2 3c 90 21 be bd 98 26 c3 bc e8 fc a8 3d
       0.027611077 -0.09283745 -0.023822114 0.08251363
0003d0 9f 82 ae 3d 52 11 ac 3c 72 04 25 bc 6a 93 1f 3e
       0.08521008 0.021004353 -0.010071861 0.15583578
0003e0 a3 cc b0 bd 18 c7 c0 3c 47 a3 43 3d 1d 10 02 3e
       -0.08632781 0.023532435 0.047763135 0.12701459
0003f0 11 38 eb 3d d6 4b 91 3d b7 31 5b bd cf 11 bb bc
       0.11485303 0.07094543 -0.05351421 -0.02283564

cnn3.bias f4 [48]
000000 c5 1c f8 3d dc 7d e6 3d de 6f 04 bb b9 73 98 3d
       0.12114862 0.112544745 -0.002020828 0.07443947
000010 8b 77 c2 bd 49 8f aa bd b5 3a 91 bc 9f 5b 58 3d
       -0.09495457 -0.08328111 -0.017728189 0.05282175
000020 ba f9 9f bd 57 73 f1 3c a6 96 03 bd 26 2e b5 3d
       -0.078113034 0.029473944 -0.03212609 0.08846693
000030 e3 af 92 bd a7 7b 6c ba 1c 97 20 3d e3 14 98 3d
       -0.07162454 -0.0009021111 0.03920661 0.07425859
000040 61 65 30 bc 9e 50 a3 bd 2c bf 0d 3e 43 2b 48 3d
       -0.010766358 -0.07974361 0.13842458 0.048869383
000050 b2 84 9e 3d ed f6 37 bd 67 4e 12 bd 6f 62 68 3c
       0.07740153 -0.04491322 -0.0357193 0.014183625
000060 0b 9d 13 be ef 7e 7e 3d ed a4 5c bd 39 72 f6 bb
       -0.14415376 0.062132772 -0.053868223 -0.0075209406
000070 b9 08 e7 bc a4 39 a1 3d 01 b1 9d bd 08 a4 99 3c
       -0.028202401 0.07872322 -0.076997764 0.018754974
000080 52 21 18 3d 6e e1 c0 bc aa 23 0d 3e 97 c0 9f 3d
       0.03714115 -0.023544993 0.13783136 0.078004055
000090 f0 1f 00 be 38 72 84 bc e9 f1 35 bc 16 c1 e0 bd
       -0.12512183 -0.016167745 -0.011105039 -0.10974328
0000a0 b4 a7 bb 3d 93 0d 2c 3d 9b 32 af 3d 77 73 a6 3a
       0.09162846 0.042005133 0.08554574 0.0012699206
0000b0 27 bc 62 bc cd 8f 72 bd 02 18 44 bd a9 e0 41 3d
       -0.013838804 -0.05921917 -0.047874458 0.047333393

lstm.weight_ih_l0 f4 [96, 48]
000000 73 17 38 3d 60 82 9f 3d 5e c5 6f 3d 73 bb 14 3e
       0.044944238 0.07788539 0.058537833 0.14524631
000010 5d 22 9d bd 20 77 0f bd 04 76 f5 3d f3 e0 e8 3c
       -0.0767257 -0.035025716 0.119854 0.028427577
000020 82 d3 bb 3d d7 03 b4 bc 68 51 a8 bd 5b e0 a4 3d
       0.09171201 -0.021974487 -0.08218652 0.08050605
000030 a9 f6 13 3e bf 0e 66 3d ec 38 ee 3d 67 74 15 3e
       0.14449562 0.056166407 0.11631951 0.14595185
000040 fd 9a 88 bd 19 56 26 3e f9 06 db 3c 23 04 1a 3d
       -0.06670187 0.16243781 0.026736723 0.0376016
000050 96 b2 09 3d 3e 55 5d 3d 48 9e fe 3c a1 71 1a 3d
       0.03361758 0.05403637 0.031081334 0.03770602
000060 4a 71 0a 3c de f3 53 3e c2 27 d8 bd fe 42 39 be
       0.008449862 0.20698497 -0.10554458 -0.18091962
000070 72 60 96 3d e3 98 4e be 12 d1 3e be 4e 39 bb bd
       0.07342614 -0.20175509 -0.18634441 -0.091417894
000080 e6 78 7a 3d 6b 90 d7 3c 72 87 a3 ba 8e a3 0f 3d
       0.061150454 0.026313981 -0.0012476279 0.035068087
000090 9e c4 bb 3c e7 52 5c 3e 1a 99 2b 3e 0c 3a 25 bd
       0.022920903 0.21516 0.16757622 -0.04033856
0000a0 5f 4e 21 3e 2a c1 e8 3d 1b 33 2f 3d 6c 98 16 3d
       0.15752552 0.11364968 0.042773347 0.036766455
0000b0 e3 14 05 3d a2 1a 2e be d0 8c b3 3d d4 b5 20 3c
       0.032490622 -0.17002347 0.08767092 0.009808976
0000c0 0d 0e ed 3d 15 6e cf 3d 42 04 d8 3c f7 bd ba 3d
       0.115749456 0.10128418 0.026369218 0.09118264
0000d0 08 96 07 3d aa b5 e9 3d 3b 50 0e be 49 af b6 3d
       0.033102065 0.11411603 -0.13897793 0.08920152
0000e0 9e e9 98 bd ac 40 ce 3d 7e 1a 99 bc 0d 1d 4e 3d
       -0.07466434 0.10070929 -0.01868939 0.050320674
0000f0 49 90 36 3e ec 34 5a bd d1 b8 52 3c 28 c5 d8 bd
       0.17828478 -0.053273126 0.0128614465 -0.105844796
000100 55 79 0c be 11 8b 6c 3e ee b8 06 3e 76 ff 09 3e
       -0.1371816 0.23099925 0.13156483 0.13476357
000110 ee f3 70 bd 8d 87 29 be 16 16 15 3c 6b fc 81 bd
       -0.05882638 -0.16555615 0.009099504 -0.06346973
000120 fb f3 03 be d8 a5 3c 3e 46 50 e8 3d 7e dd 5b bd
       -0.1288604 0.1842264 0.11343436 -0.05367803
000130 36 47 2d 3e 3c a0 cb 3d c0 8d d8 3d b9 12 1b be
       0.16921696 0.09942672 0.10573912 -0.15143861
000140 56 df 78 3e 4f 00 4a 3b 07 95 67 3d ce bc 15 3e
       0.24303946 0.0030822938 0.056538608 0.14622805
000150 f0 ca f2 3d 41 d0 b2 3d 0f 10 4e 3e bb a6 d9 3d
       0.118551135 0.087311275 0.20123313 0.106275044
000160 b6 67 1c 3e eb f5 4d 3e 9b 71 0d be cb b1 e8 bd
       0.15273938 0.20113342 -0.13812868 -0.11362036
000170 f3 a8 cd bd 25 7b 96 bd 1c a6 b8 3d e6 32 38 3e
       -0.1004199 -0.07347707 0.09016058 0.17988166
000180 44 9f 7c bd 49 9f fe 3c 6b 42 7e bd d6 11 22 be
       -0.061675325 0.031081812 -0.06207506 -0.15827116
000190 0f 77 79 bd 75 93 9b bc d0 a2 3f 3d f9 a6 03 be
       -0.06090456 -0.018991211 0.04678613 -0.12856664
0001a0 32 66 1d 3e 37 a2 1a 3e e9 bd b9 3c 91 55 2b 3c
       0.15371016 0.15100943 0.022673564 0.010457412
0001b0 2e b3 57 3c 0f 7b 25 bd f6 a5 14 bd af 34 e3 3d
       0.013165278 -0.04040056 -0.036291085 0.11094033
0001c0 ea 30 b2 bd 5b ac 33 3d 5d b6 39 be 7d c5 5b 3e
       -0.08700736 0.043865543 -0.18135972 0.21462055
0001d0 0b 69 28 be 28 33 2d be 62 61 2d be 30 41 59 be
       -0.1644632 -0.16914046 -0.1693168 -0.21216273
0001e0 b6 e7 1e be fd 50 5c be be f3 28 bd 2b ad aa 3d
       -0.15518078 -0.2151527 -0.041248076 0.083338104
0001f0 5c 4e f6 bc 54 c6 0f be 76 fe d5 bd 7d 3b 9e 3d
       -0.030066662 -0.140405 -0.10448925 0.0772619
000200 e5 a9 40 3e 1c 2e 29 3e 7c 5b 17 3e 52 53 47 3e
       0.1881481 0.16521496 0.14780992 0.19465378
000210 e0 f2 95 bc 09 c1 22 be a4 ad 8f bd eb 25 5b bd
       -0.018304288 -0.1589395 -0.07015541 -0.05350296
000220 6b 97 5d 3e 41 e6 52 3e cc 90 9e 3a 6b 9e a6 3d
       0.21639793 0.20595647 0.0012097596 0.081356846
000230 cc 4f 43 bc e0 c4 f4 3d 5c f6 3a 3d 5c 61 2b 3e
       -0.0119208805 0.119516134 0.045645103 0.16736358
000240 97 80 0a be 70 7d 17 be 33 8e 2f 3e f6 a0 28 bd
       -0.13525616 -0.14793944 0.17144088 -0.04116913
000250 46 f5 10 3e 68 f1 85 3d 6a 9b 88 3d 18 f9 b4 bc
       0.14156064 0.06540185 0.06670268 -0.022091433
000260 0a e9 f3 3d bc a7 82 3d 5b 82 af bd 0b d4 17 3e
       0.11909683 0.06379649 -0.08569785 0.14826982
000270 49 95 59 3e a9 de 42 3e 0d 5e ff bd b2 e7 38 3e
       0.21248354 0.1903025 -0.12469111 0.18057135
000280 84 58 23 3e 78 29 5e bd 7e 44 33 3e ee 6b ac bd
       0.15951735 -0.054238766 0.17506596 -0.084190235
000290 5f 1b 5a 3d 6c 89 a2 3d 2b 21 ec bd 9b c6 37 3e
       0.05324876 0.079363674 -0.11529764 0.17946856
0002a0 1c fb b9 bd a5 f3 8a bd b2 48 52 be 3f e2 9c bd
       -0.090810984 -0.06784753 -0.20535544 -0.076603405
0002b0 1f 05 dd 3d d5 70 04 be 2c 2c a5 3d 64 0b 14 3e
       0.107919924 -0.12933667 0.08065066 0.1445747
0002c0 e3 fc 0b 3d c3 a0 cb 3d 5d f4 83 bd 33 71 24 be
       0.03417672 0.09942772 -0.06443093 -0.16058807
0002d0 e8 c3 85 bd 16 98 19 3c cb 98 24 3d 00 20 ed bd
       -0.06531507 0.009374639 0.040184777 -0.11578369
0002e0 28 9c 58 bd b3 c0 c1 3d f3 aa 3c be 98 3d 85 3d
       -0.052883297 0.094605826 -0.18424587 0.06505889
0002f0 b4 8a 0a be 10 4c 09 be 06 c2 25 be 36 f3 28 3d
       -0.13529474 -0.13407922 -0.16187295 0.04124757
000300 04 87 a0 3d 8b d0 c5 3d 0b 72 78 bd c9 fa 9c 3d
       0.07838252 0.09658917 -0.060655635 0.07665021
000310 74 9e 3d 3e cb 5f e1 bd ac ff ec ba cb c4 0b 3e
       0.18517476 -0.11004599 -0.0018081567 0.1364929
000320 76 f5 3e bd 42 29 c0 3d 08 d9 41 be f6 97 d2 bd
       -0.04662081 0.09382869 -0.18930447 -0.102828905
000330 4c b9 c6 bd a2 bc 65 3d 2e a1 b1 bd d7 e9 80 bd
       -0.09703311 0.056088097 -0.08673321 -0.062946014
000340 91 3d 2a bd e7 a5 9a bc 5a b9 75 3d ce e9 30 be
       -0.04156262 -0.018877937 0.05999122 -0.1727669
000350 3a c7 3f bd 3d 0a 02 be 0c 32 54 3d 2b 51 05 3e
       -0.046820857 -0.12699218 0.05180554 0.13019244
000360 2d 8e b1 3d 29 17 16 3e ab 78 ea 3d 43 f2 cd 3d
       0.08669696 0.14657272 0.11448797 0.100559734
000370 6d 3e d7 bd 7c e4 17 3e f8 3f 12 3e f2 68 f7 bd
       -0.10509954 0.14833254 0.14282215 -0.120805636
000380 45 36 3f be 74 88 2e be 63 87 a0 3c 80 b4 d2 bb
       -0.18673046 -0.1704424 0.019595807 -0.0064302087
000390 47 20 64 3e bb 42 fb 3d f3 92 94 3b 54 42 e0 bd
       0.22277938 0.12268587 0.0045341193 -0.10950151
0003a0 09 b0 5c 3d 99 b0 c2 3c 93 f5 0d be a7 f6 03 3e
       0.053878818 0.023765849 -0.1386321 0.12887059
0003b0 84 26 43 3d 07 e4 e4 3d 51 1f 98 3d 80 25 98 bd
       0.047644153 0.11176305 0.07427848 -0.074290276
0003c0 43 e9 4e be 3d b5 81 3c 64 40 3d 3d 80 be a4 bd
       -0.2020617 0.015833491 0.046203986 -0.080441475
0003d0 16 6e 8c 3d 06 c7 28 be f6 55 45 3d ad 4b 53 be
       0.06856935 -0.16482171 0.048177682 -0.20634337
0003e0 e9 66 b5 bb 0c ae fc 3d 7a ba 1c be 08 be 7b bd
       -0.0055359495 0.12337884 -0.1530551 -0.061460525
0003f0 b9 66 5f 3d aa 0c 93 bc 73 0d dd 3c 6f 5e 5f 3d
       0.054541323 -0.017950375 0.026983952 0.05453342

lstm.weight_hh_l0 f4 [96, 24]
000000 87 8c 19 be 93 e9 9f 3d f5 88 33 3d 75 17 23 be
       -0.14995013 0.078082226 0.043831784 -0.15926917
000010 a3 41 86 bd b5 32 6e be 95 d2 39 3d f7 a8 7e be
       -0.06555488 -0.2326153 0.045366842 -0.24869142
000020 37 4c 29 3e 38 c6 e4 3d fd 7c 84 3e 69 1d 27 be
       0.1653298 0.1117062 0.25876608 -0.16319813
000030 c0 6a 3d 3e 86 a5 c6 3d 71 06 80 3e 37 cd 17 3d
       0.18497753 0.0969954 0.25004914 0.037060943
000040 ec 9d a6 3a 79 91 b4 bd f1 14 a4 bd ce 76 13 be
       0.0012711859 -0.08816809 -0.08011807 -0.14400789
000050 52 f6 8c bc be 82 1f 3d c4 e1 42 bd 0c df 34 be
       -0.017207298 0.038943045 -0.047578588 -0.1766321
000060 56 fc 44 be a8 4d 3f 3e 51 17 80 bd 30 86 58 3d
       -0.19236884 0.18681967 -0.06254447 0.052862346
000070 9e c0 04 be f9 ef a2 bc cc fd 53 3c d6 fd 0f be
       -0.12964103 -0.019889819 0.012938928 -0.14061674
000080 26 0b dd bc 2f dc 2d 3e 69 0e 1c 3d 56 fa fe bd
       -0.026982855 0.16978525 0.03809968 -0.124500915
000090 87 24 2e be 60 e6 6e be 94 6f f6 bd c0 2d 03 be
       -0.17006122 -0.23330069 -0.120330006 -0.12810421
0000a0 98 b8 c9 3d 4a f2 75 be b3 11 9f 3d b0 a2 c6 bc
       0.098496616 -0.24018207 0.07767048 -0.024247497
0000b0 ed 4f 4b 3d c2 eb e0 3d 8d 8a 48 bd a9 f0 41 be
       0.04963677 0.10982467 -0.048960257 -0.18939461
0000c0 75 34 b3 3d e0 18 4b b8 4b 3c d5 3b 5c 79 1e 3e
       0.0875024 -4.842214e-05 0.0065074316 0.15475982
0000d0 ac 3d b8 3d 6b 24 b4 3d d9 b2 eb bd 58 2f 11 3e
       0.08996138 0.08796009 -0.11508722 0.14178216
0000e0 41 41 e2 3d 00 48 b6 bd e8 3e 2c 3e b7 67 3c bd
       0.110476024 -0.08900452 0.16820872 -0.045997348
0000f0 08 c6 6f 3e 0c 86 cc bd 4f cd 19 3c 2a 69 30 be
       0.23415387 -0.09986505 0.009387328 -0.17227617
000100 cf 53 c9 bd d8 aa 0d 3e b7 e7 89 3d 7c 1c 61 3e
       -0.09830438 0.13834703 0.06733649 0.21983522
000110 f2 40 9f bd 5b 56 54 be 04 8d 80 bd ee eb 11 3e
       -0.07776059 -0.20736067 -0.062768966 0.14250156
000120 78 5d 88 3c 81 dc 00 3e 04 a1 64 3e 2c 46 2d bb
       0.016646132 0.12584116 0.22327048 -0.002643953
000130 c9 8a 3f bd 2a 12 54 be 87 38 04 be ff 04 77 bc
       -0.046763215 -0.20710054 -0.12912188 -0.015076875
000140 5e 8a 07 be 2c 9b 50 be e6 4e 08 3d ee 51 26 3d
       -0.13236377 -0.20371693 0.03327837 0.040605478
000150 32 52 11 be f0 a1 04 3d e9 b3 06 be 32 f7 2a 3e
       -0.14191511 0.032380998 -0.13154568 0.1669586
000160 d2 49 3e 3e fa d8 42 bc 6e 5b 21 3e 57 ec e3 3d
       0.18582848 -0.011892552 0.15757534 0.111290626
000170 68 34 0a be b4 12 c4 3d d7 10 aa bd 52 9e a0 bd
       -0.13496554 0.0957388 -0.08303993 -0.07842697
000180 c0 7e c2 3d 1a e6 cc bd ad 1a 39 3c c5 34 e5 bc
       0.09496832 -0.10004826 0.011297864 -0.027979264
000190 da 47 98 3d 29 45 54 be 58 b5 4d 3e 80 ca 32 3d
       0.074355796 -0.20729508 0.20088708 0.04365015
0001a0 13 bf 47 3e ef 14 f2 3d 56 82 23 3d 17 15 f2 bd
       0.19506483 0.11820399 0.03991922 -0.11820429
0001b0 40 cb 6b bd c4 61 9c bd b3 99 ce bd 69 a5 37 bd
       -0.05756688 -0.07635835 -0.100879095 -0.04483548
0001c0 24 7c 9d bd b2 20 68 3d 42 c4 65 be eb d7 23 bc
       -0.076896936 0.056671806 -0.22438148 -0.010000209
0001d0 50 b1 61 bd e5 e4 01 be 6e 26 e7 3d 6f e4 25 3e
       -0.05510074 -0.12684973 0.11286627 0.16200422
0001e0 ff 2a 75 be 10 c9 ad ba e2 76 72 3c 09 a9 b3 3c
       -0.23942183 -0.0013258774 0.014798852 0.021931188
0001f0 43 c3 33 3e 65 13 ec bd 2e 9f 78 3c 71 af 8b bc
       0.17554955 -0.11527137 0.01517467 -0.01705143
000200 58 c0 12 be 38 81 12 3e 49 a9 ea 3d 0c 4a bd bd
       -0.14331186 0.14307106 0.1145807 -0.09242639
000210 d2 e6 07 3e 99 bf a5 3d f0 6f 39 3b 3e 20 93 bd
       0.13271645 0.08093185 0.002829548 -0.07183884
000220 21 4b 10 3e 1a 2d e8 3d bd 0e 86 be 55 4c 54 3d
       0.1409116 0.113367274 -0.2618312 0.05183061
000230 66 5b ed 3d bc 30 e7 bc b2 90 82 3d c3 be aa bd
       0.115896985 -0.02822148 0.06375255 -0.08337166
000240 9a e0 cb 3d c4 e6 27 3e ed 18 c3 3c d6 43 35 bd
       0.09954949 0.16396624 0.023815596 -0.044254147
000250 28 b3 7c bb 22 d2 2e 3d 94 15 28 3e bd f0 1d be
       -0.0038558934 0.042680867 0.16414481 -0.15423866
000260 17 e3 4b be 90 b1 33 be e1 21 58 3d cd ae ed bd
       -0.19910847 -0.17548203 0.052766684 -0.11605606
000270 38 98 0b 3e 51 90 99 bd b6 fd f3 bd b8 8f 01 3e
       0.13632286 -0.07498229 -0.11913626 0.1265248
000280 fd 19 21 3e 71 8a 02 3e 85 1a 2a be 14 e7 57 bd
       0.1573257 0.12748124 -0.16611679 -0.052710608
000290 7c 1e 83 3d e8 74 45 3d e2 94 e6 bc 9b d9 d8 bc
       0.06402299 0.048207194 -0.028147165 -0.02647095
0002a0 ee fc 7e 3d 4a 22 60 3e dd 83 fa 3c c9 bc bc bd
       0.06225293 0.2188808 0.030580455 -0.092156954
0002b0 3e 23 21 3e 30 54 2c bc 44 d8 07 3e a9 0f 37 3e
       0.157361 -0.010518119 0.13266093 0.17877068
0002c0 95 38 0c be 77 a0 51 be ab 17 58 3e 38 b1 87 3e
       -0.1369346 -0.20471369 0.21102779 0.26502395
0002d0 b8 51 54 3e 91 45 a6 bd 04 38 dc 3d 13 06 58 3c
       0.20734298 -0.081187375 0.10752872 0.013185042
0002e0 9b 81 9d 3c 65 bd f3 bd dc 3d 15 be 40 06 f7 3d
       0.01922684 -0.119013585 -0.14574379 0.12061739
0002f0 22 9c 37 be 7f 73 23 be a0 78 82 be 2e 1e f1 3b
       -0.17930654 -0.15962027 -0.25482655 0.007358334
000300 94 5d 17 3e cb 7d 06 3d 8e fe 95 3d a6 57 22 be
       0.14781791 0.03283481 0.07323943 -0.15853748
000310 cd 51 3a bd 35 8f 50 be 0b 5f 81 3d 2c 2d 83 3b
       -0.045488168 -0.20367129 0.06316956 0.0040031876
000320 42 fb 02 be 7f 29 1c 3e ff be 1b 3e cf 20 2e bc
       -0.1279116 0.15250205 0.15209578 -0.010627939
000330 a0 4f 27 3d 2a 42 69 3c 8e 33 cc 3d d1 0c 4f be
       0.04084742 0.014236966 0.09970771 -0.20219733
000340 a6 f7 80 3d bc cf ad bd 43 32 f7 bd 4a 1b af 3d
       0.06297235 -0.08486888 -0.120701335 0.08550127
000350 fd 44 19 3e d6 84 e8 bd 70 5e c5 3d ec c3 ed bd
       0.14967723 -0.113534614 0.09637153 -0.11609635
000360 6e 29 22 be dc 01 a9 3d e0 94 e3 bd a7 be 61 3d
       -0.15836117 0.08252308 -0.1111238 0.05511346
000370 24 16 3b be 16 90 1c bd f3 74 43 3e d7 0e 05 be
       -0.18270165 -0.03822335 0.19087581 -0.12993942
000380 f8 d6 24 3d c2 84 30 be 30 e2 6b bd be d7 43 bd
       0.040244073 -0.17238143 -0.057588756 -0.04781317
000390 34 25 c2 3d fb d5 c1 bc 50 40 c9 bd 17 26 42 bd
       0.09479752 -0.023661604 -0.0982672 -0.047399607
0003a0 c3 8e 3d 3e 07 45 4e be 76 79 45 3e b8 db 2a 3e
       0.1851149 -0.2014352 0.19284615 0.16685379
0003b0 1c db de 3c 4b c9 a5 bb b7 ed 33 3e d7 30 75 3d
       0.027204089 -0.0050593964 0.1757115 0.05986103
0003c0 90 b2 f3 3d 11 a3 ae 3d 8a a9 53 3d d9 ae f8 3d
       0.118992925 0.08527196 0.051675357 0.121427245
0003d0 e5 1e 1a be d2 ce 6d be f8 30 9c bd bc 6d 84 3d
       -0.15050848 -0.23223427 -0.076265275 0.06466243
0003e0 5c b1 8c 3c af 11 5d 3d 52 94 c1 3c cd 0f 39 3e
       0.017174415 0.053971943 0.023630295 0.18072434
0003f0 c8 71 17 be 90 f5 09 be a0 37 a1 bd 68 c8 8d bd
       -0.14789498 -0.13472581 -0.07871938 -0.0692299

lstm.bias_ih_l0 f4 [96]
000000 45 ce 0d be 60 1b 38 3d c8 47 55 3d cb 12 e0 bd
       -0.13848217 0.04494798 0.05207041 -0.109410845
000010 c5 c3 07 bd ee 6a 94 bc 1f cc 2c 3e 32 42 aa 3d
       -0.033145685 -0.018117394 0.16874741 0.08313407
000020 43 81 2b be cc cb 39 3e bf dd 66 bd ef 16 22 be
       -0.16748528 0.18144149 -0.056363817 -0.15829061
000030 ce f9 68 3e d6 3c ab 3d b5 22 e5 bd e3 d5 af bd
       0.22751543 0.08361213 -0.111882605 -0.085857175
000040 e5 a2 78 3a be c3 d9 3d e7 87 7e 3d 70 bb 05 3e
       0.00094847224 0.10633038 0.062141325 0.13059783
000050 12 de a3 bc 2e 9e d1 bd e4 e3 58 bd 26 fa 4c 3e
       -0.020003352 -0.102352485 -0.05295171 0.20017299
000060 7e 21 a6 bd 1c 62 39 bc 28 fc 4c 3e 26 61 d3 3d
       -0.08111857 -0.011314895 0.20018065 0.10321264
000070 87 d4 e2 3d a9 e1 f7 3d 9c a1 8d 3d 63 e9 5d 3d
       0.110756926 0.12103588 0.0691559 0.054177653
000080 4b 6d 4b bc fa 8a 53 3c e0 2f 71 bd 6d 45 fe 3d
       -0.012416194 0.012911553 -0.058883548 0.12415586
000090 a8 d8 4c 3e e4 d7 89 3e ea 07 13 3e 26 7a de bb
       0.20004523 0.26922524 0.14358488 -0.0067894636
0000a0 94 5e 27 3e ee 82 0f be e0 91 c3 bc d9 e0 82 bd
       0.16344672 -0.1401479 -0.02387327 -0.063905425
0000b0 9a 18 5d 3e fc 51 06 3d 52 23 79 3e 71 90 41 3e
       0.21591416 0.03279303 0.2432988 0.18902756
0000c0 fb 78 f9 3d e7 26 31 3d ac 11 d4 3d 75 b0 1f 3e
       0.12181278 0.04324999 0.10354933 0.15594657
0000d0 55 fa 2e 3e bb 7b 06 be a6 42 9e 3d 00 0a 25 be
       0.17087682 -0.13133137 0.07727556 -0.16117096
0000e0 df 87 6e be bf fc 61 be a7 e6 ac 3c 1c 7b 3c be
       -0.23294018 -0.22069071 0.021106077 -0.18406337
0000f0 98 82 2a 3e 27 97 33 be 3b fa 54 3e 88 28 7a 3e
       0.1665138 -0.17538129 0.2079858 0.24429524
000100 46 e4 45 be f8 d6 1c be 00 68 8e bd df 78 72 3e
       -0.1932536 -0.15316379 -0.0695343 0.23678921
000110 8b ca 04 be 70 97 25 be 63 3e f7 bd 18 45 99 bd
       -0.12967889 -0.1617105 -0.12072446 -0.07483882
000120 5f 5b 8d 3e c6 a7 9a bd fc c7 4e 3d df 5a 06 be
       0.27608773 -0.075515315 0.05048369 -0.13120602
000130 8c fd 14 be f6 45 80 3e b3 d5 70 bd 3f 6c 27 3e
       -0.14549845 0.25053376 -0.05879755 0.16349886
000140 3d df fd bd c8 82 e2 3d 03 25 29 3d 1e 94 38 3e
       -0.12396095 0.11060101 0.041295063 0.18025252
000150 ba 13 b2 bd 64 2d 4d 3c d5 c9 9b bc bb 1b 12 be
       -0.08695169 0.012523029 -0.01901714 -0.14268391
000160 88 48 21 3e 96 56 da 3d 70 1f cf bd 15 d3 e8 bc
       0.15750325 0.10661046 -0.10113418 -0.028420964
000170 a4 a9 81 3e cb d8 26 3e f1 3f 2b be f7 58 4c bd
       0.25324738 0.16293637 -0.1672361 -0.04988953

lstm.bias_hh_l0 f4 [96]
000000 56 8b 40 3e c7 65 92 3b 9a c3 33 bd fd 94 9d bd
       0.18803152 0.004467699 -0.043887712 -0.07694433
000010 a8 b7 f7 3d 71 ff b3 3c 28 43 da bd 4c 64 55 bd
       0.120955765 0.02197239 -0.1065734 -0.052097604
000020 70 aa db 3d 0d 4b 14 3c f8 fd 02 3e 06 8a fb bd
       0.10725868 0.009051097 0.12792194 -0.12282185
000030 db 98 96 3d 32 0f 0b be 9e 89 1f 3e 34 5b d0 3d
       0.073533736 -0.13580015 0.1557984 0.101736456
000040 00 f0 9f 3d 48 fc 23 3e d2 84 cc 3d 8a 9f d6 3d
       0.07809448 0.16014206 0.09986271 0.104796484
000050 cb 0c 00 3e 6b 70 34 3d ed c4 90 3d 9e 02 43 3e
       0.1250488 0.044052523 0.070688106 0.19043967
000060 d6 59 a9 3d 5e ae 82 bd f5 02 33 3e 66 ad 73 3e
       0.08269088 -0.06380914 0.17481597 0.23796615
000070 9e e8 48 3e 47 ea 6d bd d3 72 72 3e a2 d0 7b 3e
       0.19619986 -0.058084752 0.23676614 0.24591306
000080 c9 7d d9 3c c5 fb 43 3e 9c 91 89 bd a9 5a 01 be
       0.026549237 0.19139011 -0.06717226 -0.1263224
000090 98 04 81 3e 44 6a fa 3b 83 55 4f 3e ed 19 a2 3d
       0.25198817 0.0076420624 0.20247464 0.07915101
0000a0 e6 65 49 3b 1b be a1 3d df 7d 01 3e 5a 16 7e bd
       0.0030730902 0.07897588 0.12645672 -0.062033035
0000b0 7b cd 4a 3c 1b 56 a7 3c 1d fa 79 bd 10 9d 77 bd
       0.012378092 0.0204268 -0.061029542 -0.06045252
0000c0 26 88 2b be 7f 03 ed 3d 98 f3 ed 3d 36 ed b2 3d
       -0.16751155 0.115729325 0.116187274 0.08736651
0000d0 a6 24 f9 3d 99 b7 e1 bd 47 4a d3 3d 22 ab e4 3d
       0.12165193 -0.110213466 0.10316902 0.111654535
0000e0 a9 6c c9 3b ff 1d c1 3d 1d ab 1d 3e f1 2f 5e 3e
       0.0061469865 0.094295494 0.15397306 0.21697976
0000f0 bd 9f 8b bd a6 39 21 be 54 96 e7 3d c8 59 1e be
       -0.06817577 -0.15744647 0.1130797 -0.15463936
000100 aa 55 bc bd 13 5b 86 bd ed 1f c4 bd 41 03 7d bc
       -0.091960266 -0.0656034 -0.09576402 -0.01544267
000110 be f7 4d bb 2b 35 c5 bd 62 7c 51 be b0 d3 0a be
       -0.0031428183 -0.096292816 -0.20457605 -0.13557315
000120 3a 93 d0 3c f3 d6 b3 bd 66 ab 5d bd bb 63 f6 bd
       0.025460828 -0.08781233 -0.054118536 -0.12030741
000130 4c b2 a1 3d ee 90 fe 3d 5c 06 1c 3e 7d 0b 4a 3e
       0.078953356 0.12429987 0.15236801 0.19730945
000140 42 ef e2 bd eb 93 e5 3c 69 65 0e 3c 50 e0 be 3d
       -0.11080791 0.028024634 0.00869117 0.09320128
000150 4a 72 5c 3e 5f 90 f0 bc c4 0e 49 3e 39 3a 58 be
       0.21527973 -0.029365717 0.19634539 -0.2111596
000160 58 8d 1e 3c 88 07 00 be 9a e0 51 3e af f2 0a 3e
       0.009677254 -0.12502873 0.20495835 0.13569139
000170 76 bd 89 bd a9 5f 81 3e 93 c4 10 3e 6b 60 62 3d
       -0.0672559 0.25268295 0.14137487 0.055267733

hidden2tag.weight f4 [4, 24]
000000 bb 56 74 3e 38 f7 2a 3e e8 8c 2c be 1e fc 4e be
       0.2386121 0.16695869 -0.16850626 -0.20213363
000010 a2 97 f5 bc cc 9e 0d 3c 86 51 c7 bc 55 77 83 3e
       -0.02997953 0.008643817 -0.024330866 0.2567698
000020 48 ef 62 bc 79 86 01 be f9 80 57 3e b8 57 e2 bd
       -0.013850994 -0.12648953 0.21045293 -0.11051887
000030 45 2b 03 3e 28 90 3f be ef ba cf be e3 72 62 3d
       0.12809475 -0.18707335 -0.40572307 0.055285346
000040 34 61 8c be e7 1b 88 3d 7a 70 6d 3e f5 8d 88 bd
       -0.2741791 0.06645947 0.23187438 -0.06667701
000050 c0 68 1b 3e 2b 58 98 bd e3 3e 64 3e 29 df 82 bd
       0.15176678 -0.07438692 0.22289614 -0.06390221
000060 36 ce cf bd ee 76 75 be c9 53 e9 3d d8 6e 38 be
       -0.101467535 -0.2397115 0.11392934 -0.18011034
000070 fd f9 7e 3e 3d ca 1f be 3d 2e 54 3d 55 6d a0 be
       0.2490005 -0.15604492 0.05180191 -0.31333414
000080 78 71 6a be 32 48 35 be 92 66 3e 3e 5a c1 57 3d
       -0.22894847 -0.17703322 0.18593815 0.05267463
000090 f0 fd fc bd 6e 89 53 be 88 b1 f4 bc 4f 6d 2d 3e
       -0.12353122 -0.20657894 -0.02986981 0.16936229
0000a0 11 e7 f4 bd e8 d4 6b bd 20 15 40 3d 96 62 31 3e
       -0.11958135 -0.05757609 0.046895146 0.17322764
0000b0 a2 91 32 be 8b 55 8a 3c 71 ec 93 bb 44 a5 52 3d
       -0.17438367 0.016886493 -0.00451427 0.05142714
0000c0 2f 23 61 3e 15 a5 d2 bc ba 01 68 3c 63 95 81 3e
       0.21986078 -0.025713483 0.014160568 0.25309286
0000d0 6c 64 56 3e 43 87 10 3e ae 07 d4 3d a5 e1 75 3e
       0.20936745 0.14114098 0.10353027 0.24011858
0000e0 da a0 8a 3b 98 02 4d 3e 31 87 2c be d2 d4 f7 3d
       0.004230601 0.2002052 -0.16848446 0.12101139
0000f0 2c f5 79 3e ae 26 cd 3d 8d ce 14 3e 99 f4 41 be
       0.24409932 0.10017143 0.14531918 -0.18940963
000100 f0 c5 f9 bb 71 0a 4d 3e cf c6 2e 3e d6 91 e8 bb
       -0.007622473 0.20023514 0.17068027 -0.007097463
000110 a8 cb 60 3e eb 32 d1 3d 2d eb 42 bd 94 03 d7 bd
       0.21952689 0.1021479 -0.047587562 -0.10498729
000120 7a 29 c3 bb f7 a3 d6 3c 28 d6 ab bd 18 08 4a be
       -0.005955872 0.026201231 -0.083904564 -0.1972965
000130 68 73 1d bd 33 17 3c 3e 6e c3 d9 bd 21 41 97 bc
       -0.038440138 0.18368225 -0.106329784 -0.018463673
000140 56 c7 38 be 88 d8 22 be b4 7a cf 3c f1 6a 97 be
       -0.1804479 -0.15902913 0.025327064 -0.29573777
000150 60 61 4c be ea 83 d5 bd 5a 85 09 3d b1 3d 17 be
       -0.1995902 -0.10425551 0.03357444 -0.14769627
000160 6a 7b e4 3d b1 5a 8e bd 89 c8 3b 3e 30 74 e7 bd
       0.11156352 -0.06950892 0.18338217 -0.11301458
000170 13 a7 15 3e f2 10 30 be 69 9c 63 3e 76 8b 5f be
       0.14614515 -0.17193964 0.22227634 -0.21830544

hidden2tag.bias f4 [4]
000000 eb 15 36 3d 0e 0f 2a 3d a3 1a 1d be 38 68 6d be
       0.044454496 0.041518264 -0.15342192 -0.23184288
