model3.pt (torch, 50341 bytes, 12 tensors)

cnn1.weight f4 [12, 6, 3]
000000 b4 18 5f bb e9 9e 8a bd c3 22 5b 3e 74 92 37 be
       -0.0034041824 -0.06768591 0.2139998 -0.17926961
000010 78 c9 58 3d c8 76 b1 3d 61 4f 2f be 50 fb 69 3e
       0.05292651 0.08665234 -0.17120124 0.22849774
000020 24 0a 99 3b 8d 8e 9f bd 95 11 04 be 07 36 c3 3d
       0.0046703983 -0.07790861 -0.12897332 0.09531789
000030 04 18 53 be a7 69 3c 3e 3d 50 e6 3d 97 22 0e be
       -0.2061463 0.18399678 0.11245773 -0.13880382
000040 d8 0c cf 3c 70 77 36 be a6 34 01 3e 3f 7a 3c be
       0.025274679 -0.17819 0.1261774 -0.18406008
000050 3b 67 11 be 89 32 26 3e 16 e2 af 3d a2 1c 42 be
       -0.14199536 0.16230215 0.08588044 -0.18956235
000060 e1 b4 13 3e 97 67 e3 bc 61 99 4d 3e 3b 76 5d be
       0.14424469 -0.027759356 0.2007804 -0.21627133
000070 2d 7f 21 3e e6 a9 55 3e e8 c8 b9 bd f8 17 3a be
       0.1577117 0.20865592 -0.09071523 -0.18173206
000080 c1 5e 49 3e bf c4 61 be 7f 2a 48 bd d5 f1 4b be
       0.19665052 -0.22047709 -0.048868652 -0.1991647
000090 9e ac b6 3c 0f 34 c8 bc 47 47 63 3e d9 bb 4b bd
       0.022299107 -0.024438886 0.22195159 -0.049739692
0000a0 6e 77 a7 3d c9 b5 cf bd 2e ac 24 bd 8b fc 0d 3e
       0.08177076 -0.10142095 -0.040203266 0.13865869
0000b0 ad 29 88 bd 8b 0e 2f 3e cf 23 08 3e 9f d0 a5 3d
       -0.06648574 0.17095391 0.1329491 0.08096432
0000c0 f6 17 bc bd 29 78 d4 bd 2b fc db 3d 7d 95 07 3d
       -0.09184258 -0.10374481 0.107414566 0.033101548
0000d0 09 01 17 3e ac ba 81 be d2 4d c5 bd c4 88 4a be
       0.14746489 -0.25337732 -0.09633984 -0.19778734
0000e0 e9 44 fa bd 30 48 83 be 23 a3 61 bd 05 8a 62 bd
       -0.12220175 -0.25641012 -0.05508722 -0.055307407
0000f0 e0 60 84 be 9a 05 ac bd a0 3d 51 be 62 94 be bd
       -0.2585516 -0.08399506 -0.20433664 -0.093056455
000100 8b cd 0e 3e 45 ea 01 bd 33 19 f6 bd 33 1b d5 bd
       0.13945596 -0.031717557 -0.12016525 -0.104055785
000110 8e cb 39 bd 69 39 40 bd ce 82 0a be 3f b6 80 3d
       -0.04536014 -0.04692975 -0.1352646 0.06284761
000120 c6 a8 d4 3d 7e 2b 04 be 9b 84 d7 bd 0f 61 4f 3e
       0.103837535 -0.12907216 -0.10523339 0.20251869
000130 de b7 57 3d 42 66 c0 3b cd 07 b6 3d 78 f6 88 3d
       0.052665584 0.005871565 0.08888207 0.06687635
000140 ab c2 88 bd 8b 64 e3 bd 0f 6c 20 3d 34 9e d8 3c
       -0.06677755 -0.111031614 0.039165553 0.026442625
000150 e4 ee c0 3d 29 31 8f 3d bd 3b fb 3d 45 76 62 bd
       0.09420565 0.069917984 0.122672535 -0.055288572
000160 a0 1a 8f bd 75 5e a8 3d 67 7d 4b be 0a db 5d bd
       -0.069875 0.08221141 -0.19872056 -0.05416397
000170 7d b1 d0 3d 3c 9c 0d 3d 1d 67 62 3e 33 2a 2f be
       0.10190103 0.034572825 0.22109647 -0.17105941
000180 fd 08 3d 3d 97 13 10 be 8d 40 75 3d 47 0b 86 3e
       0.04615115 -0.14069973 0.059876014 0.2618048
000190 70 e7 70 be f7 48 88 3d b6 ec 04 be b0 35 00 be
       -0.23525786 0.06654542 -0.12980923 -0.1252048
0001a0 1f 39 c1 bd 7f 4a 80 bd 55 c4 9e bd 73 c2 28 bd
       -0.09434723 -0.06264209 -0.07752291 -0.041201066
0001b0 b5 24 87 bd b7 a7 55 3e 94 a4 80 bd f1 12 59 3e
       -0.06598798 0.2086476 -0.06281391 0.21198632
0001c0 95 e0 20 be 1b 06 9b 3c 68 39 5a 3e cf b0 5b be
       -0.15710671 0.01892381 0.21310961 -0.21454166
0001d0 6e 7a b0 bb 04 59 43 be c2 3b 78 3e 40 d1 ff bc
       -0.0053856885 -0.19076926 0.24241546 -0.031227708
0001e0 43 68 34 bd 7a ad 33 be 68 b7 8c bd aa c4 52 3d
       -0.044044744 -0.17546645 -0.068709195 0.051457085
0001f0 74 c1 a9 3c 2a c5 25 3e 06 b9 2f be 1e e1 32 3e
       0.020722128 0.16188493 -0.17160425 0.17468688
000200 75 38 e5 3d 1d a4 1a 3e 0a 0c 6f be ad 3d b7 3c
       0.11192409 0.15101667 -0.23344436 0.022368276
000210 72 ec 97 bd 36 7f 73 be cb 60 ba 3d 78 2d 16 be
       -0.07418145 -0.23778996 0.09100493 -0.14665782
000220 8e 5f 52 be 54 fc 6e be 3d f7 d3 bd 84 5c 18 3e
       -0.20544264 -0.23338443 -0.10349891 0.14879042
000230 ca 21 ab bd b1 ea a8 3d 7a 09 04 be f0 50 e6 3d
       -0.08356054 0.08247889 -0.1289424 0.11245906
000240 39 94 07 be 3e f7 e8 bc 11 ea 25 3e 96 90 7d 3e
       -0.13240136 -0.028438207 0.1620257 0.24762186
000250 bc ee 96 3d 0e fa 1c be 86 89 ab 3c 5f a6 8c 3d
       0.07369754 -0.15329763 0.0209396 0.0686767
000260 a9 1a 80 bd 08 36 3c be b0 82 4e be d7 86 10 bd
       -0.06255085 -0.18379986 -0.20167041 -0.035284843
000270 ba d4 05 3d c4 b3 30 3e ef bb 39 be 0c 0e a1 3d
       0.032673575 0.17256075 -0.18138097 0.07864007
000280 d8 9f 5a be 4d 58 58 bd d4 9d 22 3e 9f 60 1f 3e
       -0.21350038 -0.052818585 0.15880519 0.15564202
000290 bf 8f 16 bd 1f 1b 55 3e ca 26 3c 3e c0 81 83 bd
       -0.03675818 0.20811127 0.18374172 -0.06421232
0002a0 2a b3 ca bc c4 49 ae bd 3d d0 39 be b7 41 d0 bd
       -0.024743635 -0.085101634 -0.18145843 -0.10168784
0002b0 fa 9b 2e 3e 44 2f d5 bd 4a 16 0d 3e 37 c7 40 be
       0.17051688 -0.10409406 0.13778034 -0.18825994
0002c0 84 31 39 3e f0 71 43 3e 2a 39 30 3d f8 1f f3 bd
       0.18085295 0.19086432 0.043023266 -0.11871332
0002d0 78 11 4b be 45 0a 5f 3e dc 9e e1 bd 54 fa 2e 3e
       -0.19830883 0.21781261 -0.11016628 0.1708768
0002e0 b5 dc 39 be 71 c0 8a be 48 82 61 be ff ad 11 3e
       -0.181506 -0.27099946 -0.22022355 0.1422653
0002f0 6b 81 0d 3e c3 3d 31 be 24 9c 55 be 61 47 66 3d
       0.138189 -0.17308716 -0.20860344 0.056220416
000300 76 cd 57 bb 52 64 81 bd f3 55 dc bc 33 10 b2 3d
       -0.003292886 -0.06317963 -0.026896453 0.08694496
000310 0d 24 a8 bd 47 2d f2 bd ed c7 51 3d d7 54 e8 bd
       -0.08210001 -0.11825042 0.051216055 -0.11344307
000320 77 cc 0b 3e 86 a7 60 3e 48 0f b2 3d 69 73 b1 3d
       0.13652216 0.21938905 0.08694321 0.08664591
000330 51 47 cf 3d 85 2c 3b be 90 fb d4 bd 9e b6 e5 3d
       0.101210244 -0.18278702 -0.10399544 0.11216472
000340 09 3e 1e be 38 c9 cb bd 2e d0 7d bd 9b 6a 69 bd
       -0.15453352 -0.09950489 -0.061966114 -0.056986433
000350 cc 03 18 3c 90 60 5b 3e 3a bc ec 3c a8 2d 5f 3d
       0.009278249 0.21423554 0.028898347 0.0544869

cnn1.bias f4 [12]
000000 d5 c3 8e 3d 48 dc a3 3d 4c 03 f5 3d 5e fd 05 be
       0.06970946 0.08001 0.119635195 -0.13084933
000010 09 c8 4c 3d 61 98 9a 3d 35 23 d4 3c 02 db 09 3e
       0.049995456 0.07548595 0.025895694 0.13462451
000020 42 4e 02 be 5e 53 4b be c5 20 2a be 91 db b0 3c
       -0.12725165 -0.19856021 -0.16614063 0.021589072

cnn2.weight f4 [24, 12, 3]
000000 5d ee 9c 3d bb df 27 bd 4a 9a 22 3d 69 cd fc bd
       0.07662652 -0.04098485 0.039697923 -0.123438664
000010 3e 68 22 be 41 61 bb bd f0 c1 d9 bd 55 ab 8b bd
       -0.15860078 -0.09149409 -0.10632694 -0.06819788
000020 27 b6 ef bd 51 64 93 bd f2 18 c6 bc ae 96 1a be
       -0.11704665 -0.07196868 -0.024181817 -0.15096542
000030 04 3b 07 be a3 3f 86 3b e5 70 d8 bc 61 57 90 3d
       -0.13206106 0.0040969416 -0.02642102 0.07047916
000040 cb 1f a9 3d 11 4c c3 3d 37 c3 49 bd d9 4c d0 3d
       0.08258017 0.09535993 -0.049258437 0.101709075
000050 22 3e 73 3c a6 45 1d 3e 10 fb 3a 3d cd 47 4c 3c
       0.014846357 0.153586 0.045649588 0.0124682905
000060 64 c5 f8 3b ae 82 0b be e8 2c a1 bd 35 a0 cd 3d
       0.00759189 -0.13624069 -0.07869893 0.10040323
000070 24 c2 59 bc df e5 fc bc bb 30 86 3d 1d f8 96 3d
       -0.013290916 -0.03087133 0.06552263 0.073715426
000080 8d ed 66 bd 63 2c 07 3e c7 a7 22 bc 19 82 be 3d
       -0.05637889 0.13200526 -0.009927697 0.09302158
000090 b2 38 6b 3d 7b e5 1f bd cc b6 ab 3d ad c7 e7 3c
       0.057427116 -0.03903721 0.08384475 0.028293455
0000a0 f2 ee 1b bc 43 81 09 3e fb 57 86 3d 56 5e c7 bd
       -0.009517418 0.13428216 0.0655975 -0.0973479
0000b0 14 31 23 3e 88 e6 82 bc 99 9d eb 3d 60 f4 bb 3d
       0.1593669 -0.015979066 0.11504669 0.0917747
0000c0 c6 3f c8 3d 40 22 21 3e 0a 2c 0b bd 15 24 01 be
       0.09777789 0.15735722 -0.033977546 -0.1261142
0000d0 32 c5 18 3e bf 12 a5 bd 41 e9 0b 3e 0a 92 36 bc
       0.14918974 -0.08060216 0.13663198 -0.011143217
0000e0 3d 4e 1e 3e e1 a1 89 3c 78 8b bb 3d c9 9c 09 be
       0.15459533 0.016800823 0.09157461 -0.13438715
0000f0 0d 2f 93 3c 99 4d fa bd 68 c8 ad bc 55 1c a6 bd
       0.017966771 -0.12221832 -0.021213725 -0.08110873
000100 bc 16 7b bc 16 33 c8 3c 1a 9a c9 bd d3 1b 1f be
       -0.0153252445 0.024438422 -0.09843846 -0.15537958
000110 40 29 eb 3b 53 87 01 be 54 bc aa bd b8 43 e3 3d
       0.0071765482 -0.12649278 -0.08336702 0.11096901
000120 bf c8 d3 3d 74 3b 1e 3c 89 83 a3 3d a6 4e 7f bd
       0.10341024 0.009657729 0.07984073 -0.062330864
000130 44 09 0e 3e 41 63 35 3c 77 20 08 bd d7 8e 20 be
       0.13870722 0.011071027 -0.033234086 -0.15679489
000140 d2 a2 0e 3c 5f 97 b1 3d 14 93 0d 3e 55 f3 0b be
       0.008705812 0.0867145 0.13825637 -0.13667043
000150 1a d3 85 bd c8 11 17 3e 67 49 06 bd 4b 7d 24 be
       -0.06534405 0.14752877 -0.032784846 -0.1606342
000160 8b 2b 86 3d 76 46 d6 bd 65 e3 30 3e c4 1c 85 3d
       0.06551274 -0.10462658 0.17274244 0.06499627
000170 68 de e2 bc 0a 87 32 bc eb b0 b1 bd 45 49 79 bd
       -0.027693942 -0.010896454 -0.086763225 -0.06086089
000180 58 e8 18 3d c2 20 2b be 23 3e 7f 3d e2 02 6d bd
       0.037330955 -0.16711715 0.062315118 -0.057864077
000190 b8 0d a7 3d 46 18 0e be 9f 05 aa bd ae 68 f0 3d
       0.081569135 -0.13876447 -0.083018534 0.11738716
0001a0 c6 a8 1b 3d ca 9a a7 3c e2 a5 62 3b 6c ab b8 3d
       0.03800275 0.020459551 0.0034583737 0.09017071
0001b0 5a 77 c0 3d 28 c9 ba 3d d1 30 34 3e bc a6 46 3d
       0.093977645 0.09120399 0.17596747 0.048498854
0001c0 7a 83 11 be 60 6c 16 3e 94 79 21 3e 43 fa ec 3c
       -0.1421031 0.1468978 0.15769035 0.028927928
0001d0 d7 7a 4f 3d f2 19 6f bd c0 60 ee bd 5c b1 de 3d
       0.05065426 -0.058374353 -0.11639547 0.10873672
0001e0 6c ab 20 be bb 60 08 bd 19 39 02 3d c5 81 f7 bd
       -0.15690392 -0.033295374 0.031792734 -0.120852984
0001f0 b8 12 21 3e 25 a9 22 bc d2 ec 4b bd b9 f4 a4 bd
       0.15729797 -0.0099280225 -0.049786396 -0.0805449
000200 3b 54 3e 3e f6 48 00 be 27 56 0e be 17 0f af 3d
       0.18586819 -0.12527832 -0.13900052 0.085478
000210 be 56 ec 3b 19 1b 43 bc 23 3a 1b be 53 6d 01 3d
       0.007212489 -0.011908316 -0.15158896 0.0315984
000220 af 42 e6 bd 0e 83 9d bd 98 4e 66 3d 10 26 e6 bd
       -0.11243188 -0.07691012 0.056227297 -0.112377286
000230 16 64 92 bd db be ea bd fc 6f 98 3d 24 d3 fc bd
       -0.07147996 -0.11462184 0.07443234 -0.123449594
000240 57 dd 6f 3c 46 fe b9 3d d7 57 1f be c6 5f 91 3d
       0.014640174 0.09081702 -0.15560852 0.070983455
000250 6e 7e 00 3d e6 e4 c9 bc 2a a1 6f bd a7 62 0c be
       0.031370573 -0.02464528 -0.058503307 -0.13709508
000260 b8 75 23 3e 8f bb 93 3d a5 a6 c7 3c 07 54 be bb
       0.15962875 0.07213508 0.024371454 -0.0058083567
000270 2a a9 53 bd 0f 43 db 3d ce ae 4b 3d a7 a1 21 be
       -0.051675 0.1070615 0.049727254 -0.15784322
000280 8e 6e e0 bd ca 25 d9 bd 3f 4c 69 bd 22 a9 00 3e
       -0.10958587 -0.10602911 -0.05695748 0.12564519
000290 44 46 d1 3d 7c 74 e9 bd 85 6a 48 3d a9 1a 9f bd
       0.1021848 -0.11399171 0.04892971 -0.07768757
0002a0 d7 3c 32 3d 47 16 b2 bd 98 53 ad 3d 66 7c 5d 3d
       0.043515053 -0.08695655 0.0846321 0.054073714
0002b0 b0 18 11 be b7 c5 b2 3c 04 da 06 be d4 37 94 bd
       -0.14169574 0.021822793 -0.13169104 -0.07237211
0002c0 bc 69 4e bd ca 7e c6 3c 40 35 89 bd 6b 7c d0 bd
       -0.050393805 0.02423038 -0.0669961 -0.10179981
0002d0 2e 49 11 3e 13 d1 8a bd 46 71 a7 3c 4e 7a 0b 3d
       0.14188072 -0.06778159 0.020439755 0.034052186
0002e0 d7 2f ba 3d ba d3 2b 3c 1c de 2b 3e 21 ff fd 3d
       0.09091156 0.010487491 0.16783947 0.124021776
0002f0 bc e7 89 3d be 51 1e 3d e3 ed bb bd 7d 00 48 3d
       0.06733653 0.038652174 -0.09176233 0.04882859
000300 05 31 ad bd 74 91 22 bd 1e a3 a4 bd de b7 03 be
       -0.08456615 -0.039689496 -0.08038925 -0.12863109
000310 01 68 8c bd 30 60 6b bd 68 96 e9 bd 5b 02 0e 3e
       -0.06855775 -0.05746478 -0.11405641 0.13868086
000320 c2 fc 5c 3d c0 54 1d 3d ff cc 00 bd 97 50 34 bb
       0.053951986 0.038410902 -0.0314455 -0.0027513856
000330 19 5c 94 bd fb 09 9c 3b 38 ef 7d 3c 47 47 b9 bd
       -0.07244129 0.004761932 0.015498929 -0.09046798
000340 50 fb 86 3d d3 91 00 3e 92 0f ec 3d 67 71 5d bd
       0.06590903 0.12555628 0.11526407 -0.054063227
000350 02 d2 0b bc 31 81 e2 3d d6 d4 ba 3d 7e d5 2d 3e
       -0.0085339565 0.110597976 0.091226265 0.16975972
000360 2d 7d 08 3e 78 5b d9 3c 43 63 24 3e 87 18 8f bd
       0.13329001 0.026532874 0.1605349 -0.069871
000370 7f 3b 25 be 0c 46 d1 bd a1 62 2f 3e ab 1f d5 bd
       -0.16135977 -0.102184385 0.17127468 -0.10406431
000380 ef db c2 3d 2a 53 a1 3c 39 54 0e 3e 02 f4 b0 bc
       0.09514605 0.019692976 0.13899316 -0.021600727
000390 f6 61 61 3d 4e 68 ea 3d 97 45 cb bb 22 62 1a 3e
       0.055025063 0.11445676 -0.006203364 0.15076497
0003a0 57 ec 8b 3c 3b 0d 0e be d1 15 84 bd 28 b0 2a 3e
       0.017080469 -0.13872235 -0.06449474 0.16668761
0003b0 a3 7b ff 3d e1 5b 2f be 65 00 12 be 59 bc 20 be
       0.12474754 -0.17124893 -0.14257963 -0.15696849
0003c0 0d 1f 83 3c 24 bc 1d 3d 27 61 90 bd d6 bb 0b 3e
       0.016006017 0.038509503 -0.0704978 0.13645872
0003d0 df 5a 06 be fe eb be 3c 7a d3 bf 3d f9 6f 61 bd
       -0.13120602 0.02330589 0.09366508 -0.055038426
0003e0 23 4e 81 bd c8 68 7c bd 1d e4 68 bd 4e f9 c4 3c
       -0.063137315 -0.061623365 -0.05685817 0.024044659
0003f0 c8 90 67 bd 39 53 0c 3e 81 29 13 be 54 fa 15 3d
       -0.05653456 0.13703622 -0.14371301 0.036615685

cnn2.bias f4 [24]
000000 85 4d 92 3d bb 73 c6 3d c9 7e 0d bd 8d c6 63 bc
       0.07143692 0.096900426 -0.03454474 -0.013902319
000010 c1 99 90 bd 77 47 ad bd 2a 7b 96 bd 7a 5e 08 be
       -0.07060576 -0.084608965 -0.073477104 -0.1331729
000020 45 b7 9b 3d bb 06 84 bd 8d 73 cb bd 91 b1 b1 3d
       0.07603315 -0.06446596 -0.09934149 0.08676446
000030 e1 ab 9d 3d 7c 60 8b 3c f6 21 16 bd a8 95 12 3d
       0.07698799 0.01701378 -0.03665348 0.035787255
000040 f9 25 44 3e f1 5b f2 3d 7c 67 81 3d e1 68 d1 3d
       0.1915511 0.11833943 0.06318566 0.10225082
000050 e1 58 0c 3e 40 14 bb bd 7c 71 0f 3e db b1 70 bd
       0.1370578 -0.09134722 0.14008135 -0.058763366

cnn3.weight f4 [48, 24, 3]
000000 69 19 3e 3d f3 35 da bc a7 81 1c bc a3 15 cd 3d
       0.04641095 -0.026637053 -0.009552396 0.100138925
000010 6e 35 4f 3d 35 f8 46 3d 0c f6 1d 3d 06 8d ac bd
       0.050588064 0.048576552 0.038564727 -0.084253356
000020 9d 3e 43 bd 2d 38 88 bd a0 da ca 3b 9a 7a 81 3d
       -0.047667135 -0.0665134 0.006190613 0.063222125
000030 ee 9e 50 bc f3 97 9c 3d b4 f9 c0 bd ac 89 b5 bd
       -0.012733204 0.076461695 -0.09422627 -0.088641495
000040 69 5d 15 bd fd e2 67 3d 00 be 14 bd 46 d9 9d bd
       -0.036466036 0.056612957 -0.03631401 -0.07707457
000050 a6 7e 96 bc 79 29 03 3e 5f 42 49 bd f2 70 7a bd
       -0.018370938 0.1280879 -0.049135562 -0.06114287
000060 72 ce 6b 3d 23 1d 0e bd a1 d0 33 bd dd ea a9 bd
       0.05756993 -0.034695756 -0.043900136 -0.0829675
000070 3a 8c 90 3c 1c 26 60 bd 74 9e 07 3e 70 8b ec 3d
       0.01764499 -0.054723844 0.13244039 0.11550033
000080 32 03 8a bd cd 3f cc bd a2 45 ba bd d4 e8 78 bc
       -0.06738891 -0.099731065 -0.09095313 -0.015192229
000090 f3 5b 3c 3b 1d a1 dc 3d a7 4a ab bd d0 2f b5 bd
       0.002874133 0.107729174 -0.08363848 -0.0884701
0000a0 e8 6c 80 3c 9b cb 0d bd 05 f8 00 3d 94 3d dc 3d
       0.01567693 -0.034618 0.03148653 0.107539326
0000b0 e0 29 69 bb d4 28 07 3e 41 be 22 b9 d6 4c a3 3d
       -0.0035577938 0.13199168 -0.00015520399 0.0797364
0000c0 cf 0d 2b bd 7c 9c 8d 3d eb de 09 3e b0 bd 8a bc
       -0.041761216 0.06914613 0.13463943 -0.016936153
0000d0 b0 30 08 bb e3 16 a0 bd 23 2a f0 3d 9a 1b c1 3c
       -0.0020780973 -0.07816865 0.11726787 0.023572732
0000e0 0b 76 83 3d 9b c2 9f bd a1 44 91 bc 4f 09 20 3d
       0.06418999 -0.0780079 -0.01773292 0.039071377
0000f0 36 3f 8d bd f3 cc f5 bc 18 93 7e 3c 4e 83 5c bc
       -0.06896822 -0.030004954 0.015538 -0.01345904
000100 b3 6b 12 bd 40 07 f6 3c 40 9c ec 3d 12 8e a4 bd
       -0.03574724 0.030032754 0.1155324 -0.0803491
000110 7d 6e 92 bd 9a b9 39 3c 9f 2c a9 bc 04 62 13 bd
       -0.0714998 0.011335755 -0.02065116 -0.035982147
000120 98 98 fb bd 0e a8 90 bd 92 d5 b2 3d ce 1c a4 3d
       -0.12284964 -0.07063304 0.087321416 0.080133066
000130 29 fc 6d 3d 41 77 9c bd 0d 88 6a bd f2 24 68 3d
       0.058101807 -0.076399334 -0.057258654 0.05667586
000140 c5 57 30 3d 4d 07 b0 bd 7b 2d c3 3d ea 99 a5 bd
       0.043052454 -0.085951425 0.09530159 -0.080859974
000150 30 c1 4b bd 18 5d 86 3d 3b 6b d0 3d bb f9 d0 bd
       -0.049744785 0.06560725 0.101767026 -0.10203882
000160 9d ee ae bc 5d f2 a3 3d 78 be 6a 3c f9 93 23 bd
       -0.021354014 0.080052115 0.014327638 -0.03993604
000170 d6 f4 15 bd 73 53 97 3d 21 66 c2 bd 95 9f a6 3d
       -0.036610447 0.073889636 -0.09492136 0.081359066
000180 93 30 5d bd f1 94 8c bd c8 ba a2 bc 3c ad b4 bd
       -0.054001402 -0.06864346 -0.019864455 -0.08822104
000190 7f b6 8b bd ec cf f1 bd 6b 24 ab 3d 97 71 db bd
       -0.06821918 -0.11807236 0.083565556 -0.10715025
0001a0 e8 ff 3f 3c 8d 2d f6 3c ee 8c c2 3d 0c b4 d4 bd
       0.011718728 0.030051017 0.094995365 -0.10385904
0001b0 86 bd 67 bd 13 f3 08 bd 20 53 82 bb 2d 90 48 bc
       -0.056577228 -0.03343494 -0.0039771944 -0.012241405
0001c0 86 bf 47 bd 14 fe db 3d 65 9d 5b 3d b0 71 c8 3c
       -0.048766635 0.10741821 0.0536169 0.024468273
0001d0 4c 8f 74 3d 96 d6 a0 bd 4d 02 22 bd e1 f5 f9 bd
       0.05970697 -0.07853429 -0.039552975 -0.12205101
0001e0 ee ad 45 3d f9 4a cc bd cf f0 87 bd 62 07 ba 3c
       0.048261575 -0.099752374 -0.066377275 0.022708599
0001f0 4e 19 ac bd b6 22 8f bc 0b e1 c1 bd 24 fb e4 bd
       -0.08403264 -0.017472606 -0.09466752 -0.11180714
000200 97 3e be bd 37 0f 91 3d 80 1f 13 3d bd 17 f8 bc
       -0.09289282 0.0708298 0.035918713 -0.030284757
000210 cc d9 cc 3c 7a 07 7f bd fe 40 d9 bd df 66 95 3d
       0.025006197 -0.06226299 -0.106080994 0.07295012
000220 9b 2a ce bd d1 e5 49 bd ac 30 a9 3c b1 32 16 bd
       -0.1006672 -0.049291436 0.020653091 -0.036669437
000230 0b 0f d2 3d 05 18 84 3d ba 5d 75 3d d7 67 40 3d
       0.102567755 0.06449894 0.059903838 0.04697403
000240 27 8e bf bd 92 1c 17 bd 8c 96 b2 bd 5e 8b 06 bd
       -0.09353285 -0.03689248 -0.08720121 -0.032847755
000250 25 b5 4e 3d ed 26 f3 b9 b8 58 f9 3c 01 85 8d 3c
       0.05046572 -0.00046377574 0.030437812 0.017275335
000260 e6 37 28 3d b2 77 c5 bd 49 9f 2d 3d c1 83 8f 3d
       0.041068934 -0.09641971 0.042388234 0.07007552
000270 19 87 2b bc 75 b3 06 3d 6a 93 71 3d 67 da ca bd
       -0.0104692215 0.032885987 0.058978476 -0.09904938
000280 3c 46 ad bd 53 30 a5 3c 8f e7 c5 bc df 9a 4f 3d
       -0.08460662 0.020164644 -0.024158267 0.050684806
000290 b0 0e c4 bc 6b c6 e7 3c 91 5d 59 bc 99 48 ca bd
       -0.023932785 0.028292855 -0.013266937 -0.09877128
0002a0 a4 7c 9e 3d 6c bf eb bd f4 29 95 3d 70 03 65 bd
       0.07738617 -0.1151112 0.072833925 -0.05591148
0002b0 73 21 45 bd 28 6b c4 3d 9d 26 61 bd 54 da 14 3d
       -0.048127603 0.09590751 -0.054968465 0.036341026
0002c0 8b c0 e2 3d c9 c9 3f bd 3d 2a 4f bc 03 70 49 bd
       0.11071881 -0.046823297 -0.012644348 -0.04917909
0002d0 8a 7a 6d 3c 47 90 ff 3d db 97 be 3d 35 7d 60 ba
       0.014494548 0.124786906 0.09306308 -0.0008563579
0002e0 91 44 af 3c 43 83 93 bd 7e 5c 10 bd 55 61 93 bd
       0.021395 -0.072027706 -0.035244457 -0.07196299
0002f0 71 e4 15 bd 7d f8 99 bd ba ea b8 3d 1b ff 80 3d
       -0.03659481 -0.075180985 0.090291455 0.062986575
000300 35 73 10 3d 6c f3 b5 bd 40 7c d8 3c 42 7e 8a bd
       0.03526612 -0.0888432 0.026426435 -0.06762363
000310 42 1c da 3d 1b cc 91 bd e0 5d 95 bd eb 18 58 bd
       0.10649921 -0.07119008 -0.07293296 -0.05275814
000320 00 3f a7 bb 06 0e a6 bd 75 86 46 bb c3 8e 1a bd
       -0.0051039457 -0.081081435 -0.0030292545 -0.037733804
000330 a8 b6 b4 bb 49 e4 7e 3d cb 17 b2 3d 94 c2 b1 3d
       -0.0055149384 0.06222943 0.086959444 0.08679691
000340 e6 e3 fb 3d 29 c1 a9 3d ab 7f 69 bc 98 4c d6 3d
       0.122993276 0.082887955 -0.01425163 0.10463828
000350 2f 40 cb bc fd d7 e2 3d 85 fb ba bd b2 f4 00 3b
       -0.024810879 0.11076353 -0.09130005 0.00196771
000360 2b c2 e4 3d 81 62 9a bd 51 4c c1 3c 87 7b ed bd
       0.11169847 -0.075383194 0.02359596 -0.115958266
000370 02 91 e4 3c 70 08 8e 3c bb a2 76 b8 1f 50 57 bd
       0.027901176 0.017338008 -5.8802525e-05 -0.052566644
000380 a2 8a 1e 3d 26 94 a6 3d 1d 0a ce 3d e0 b1 a3 bd
       0.03870643 0.08133726 0.10060523 -0.07992911
000390 3a ac 67 3d 3b b8 30 3c 2b 38 da bc 31 01 c2 3d
       0.056560732 0.0107861115 -0.026638111 0.094728835
0003a0 9c 26 55 3c f1 59 1e bc 5d 68 79 3d 80 5b 08 3e
       0.0130096935 -0.009664998 0.060890544 0.13316154
0003b0 bd 17 21 bd 23 b9 f4 bc ba 44 dc bd 66 f2 ad 3d
       -0.03932928 -0.029873436 -0.10755296 0.084934995
0003c0 c2 c1 3d 3d 59 a7 ac bd 43 09 4f 3d 35 62 95 bd
       0.04632736 -0.084303565 0.050545942 -0.07294122
0003d0 24 78 7f bd f6 0a dd bd f6 da f6 bc 91 2c a5 3d
       -0.062370434 -0.10793106 -0.030133706 0.08065141
0003e0 37 85 cf 3d fc 11 a3 bd aa 7f 03 3d c4 54 62 3d
       0.101328306 -0.079624146 0.03210417 0.05525662
0003f0 07 17 69 bd d2 13 c3 3d 2f 23 c6 3d 18 11 b8 3d
       -0.056906726 0.09525265 0.096746795 0.089876354

cnn3.bias f4 [48]
000000 b9 cf f8 39 91 53 6b 3d 58 b7 1b bc 56 ad a6 bc
       0.00047457012 0.057452742 -0.009504162 -0.020346325
000010 f3 74 98 3d bc 1d ed bc ed 9d 19 3e e2 16 e2 3c
       0.07444181 -0.028944843 0.1500165 0.027598802
000020 4a 00 05 3d 62 72 9f bd 92 18 e4 3d 00 6e 12 3e
       0.03247098 -0.07785489 0.11137499 0.14299774
000030 d3 05 04 3c a4 8a 51 3d e8 56 aa 3d 3c f7 db 3c
       0.008058029 0.05115761 0.08317357 0.026851289
000040 21 fa 23 bd 4b eb 1d 3e d0 bb ba 3d 3c 1b ec 3d
       -0.040033463 0.15421788 0.09117854 0.11528632
000050 48 40 98 3d 6e 4f b5 bd 24 5c ea 3c 39 25 0d 3e
       0.07434136 -0.08853041 0.02860839 0.1378373
000060 18 21 f8 3c b4 77 ca 3c ed b2 36 bd cf dc b3 3d
       0.030289218 0.024715282 -0.04460423 0.0878235
000070 b7 16 14 3e 54 2f 13 3c 23 01 4a bd 6e b6 a7 bd
       0.1446179 0.008983452 -0.04931749 -0.081890926
000080 e4 de 57 3b a4 cc fc bc a7 bf ab bc d9 c0 9f ba
       0.003293925 -0.030859299 -0.02096541 -0.001218821
000090 15 72 ad 3d 6f 4a 33 3d 64 8e 34 bc 7a 6c 4a 3d
       0.08469025 0.043772157 -0.011020277 0.049419858
0000a0 d2 29 5d bd aa de 6b b9 10 c2 e8 bd 21 14 a0 3d
       -0.05399496 -0.00022494295 -0.113651395 0.07816339
0000b0 46 d7 aa bd ad 14 dc 3c 6e de 21 bd db 7e d3 bd
       -0.083418414 0.026865328 -0.039518766 -0.1032693

lstm.weight_ih_l0 f4 [96, 48]
000000 3c 44 26 3e fa 68 dd 3d 20 53 1f 3e bf bb 01 3e
       0.16236967 0.10811038 0.15559053 0.12669276
000010 bb b9 49 3d d0 24 26 be 1f a2 33 be df a9 ba bd
       0.049249392 -0.1622498 -0.17542313 -0.091144316
000020 fa 6d 6e bc 8a f7 a8 3c c5 78 f4 bd c4 b5 cc 3d
       -0.014552588 0.020625848 -0.119370975 0.099956065
000030 93 ec 1f 3e 02 7e 53 3e 24 a8 16 be 08 99 da bd
       0.1561759 0.20653537 -0.14712578 -0.1067372
000040 80 92 a7 bd 3a 2e 5f 3c d1 c1 3a 3e 67 98 90 3d
       -0.081822395 0.013621861 0.18237998 0.070603184
000050 46 fd 8f 3c 66 00 23 be 81 07 45 be d3 3e ac 3d
       0.017576825 -0.1591812 -0.19241144 0.0841042
000060 e4 1c 9e 3d 35 a8 4b 3e 9c fa 42 bd 00 10 f1 bd
       0.07720354 0.19888385 -0.04760228 -0.1177063
000070 5f 27 97 bd 0c 01 13 be c7 3d 39 bd 30 23 6f bd
       -0.07380556 -0.14355868 -0.04522493 -0.058383167
000080 de b6 19 be 00 af 18 be 92 2e 14 3e df d7 0d 3e
       -0.15011165 -0.14910507 0.1447089 0.1385188
000090 d0 63 60 3d 5b dd 21 3e 6a e7 78 3d fc ec b8 3d
       0.05478269 0.15807097 0.06076757 0.09029576
0000a0 b2 c2 f1 bd 99 a4 07 3d 6e 13 83 3d 1b 8b 50 3e
       -0.11804713 0.033115957 0.0640019 0.20365565
0000b0 bc 1a d7 bd e2 e3 13 bd 0e 08 42 be 3e 51 0d 3d
       -0.10503146 -0.036105998 -0.18948385 0.034501307
0000c0 14 ae b1 3d fb 1a 08 3e 05 58 84 bd 88 3e 1e 3e
       0.08675781 0.13291542 -0.06462101 0.15453541
0000d0 18 08 7c bd 0e 5a d2 3d 8c 79 39 3e a4 50 e3 3d
       -0.061531156 0.10271083 0.18112773 0.11099365
0000e0 ad 00 dc 3d 73 65 1f be d9 a2 2d 3e 79 cf 3f 3e
       0.107423164 -0.15566044 0.16956653 0.18731488
0000f0 ce 34 9d bd 7a 86 a1 3c 42 c7 5c 3c 12 a8 d6 bd
       -0.07676087 0.019717444 0.013475241 -0.104812756
000100 ea 7f a2 bd 76 7d 81 bd d3 28 d5 3d e4 ba 15 3e
       -0.07934554 -0.06322758 0.10408177 0.14622074
000110 c8 54 0c bd 4b 95 4b be 8c ce 39 3e b7 b6 41 bd
       -0.03426054 -0.1988117 0.18145198 -0.04729339
000120 15 fb 2d be cf 05 57 3e 7b 78 22 3d f6 bf 19 3e
       -0.16990311 0.2099831 0.03966568 0.15014634
000130 29 0a 37 bc fc 83 a1 3d dd 3b 8f bd 75 04 e8 3c
       -0.011171856 0.07886502 -0.0699384 0.028322438
000140 7d 04 f8 3c 42 aa 14 3d 26 d4 36 bd fb 8e 24 be
       0.030275578 0.036295183 -0.044635914 -0.16070168
000150 58 49 d1 bc 4d b1 f2 3d 9c ae 4b ba f7 63 1e 3d
       -0.025547668 0.11850224 -0.0007769854 0.038669553
000160 5e e5 4c 3e 60 92 33 3e 8a 59 2b 3e fa de db 3d
       0.20009372 0.17536306 0.16733375 0.10735889
000170 a8 a4 28 3e ca 5a 69 3d c4 bb 1e 3e b3 8d ae 3d
       0.16469061 0.05697135 0.15501314 0.08523121
000180 33 d9 16 be 79 83 70 3d 28 5e 1a be 91 f5 88 3d
       -0.14731292 0.058719132 -0.1507498 0.06687463
000190 c2 3e f9 3c 8e ce a3 3d dc 4c 33 3e 17 f5 01 3e
       0.030425433 0.079983816 0.17509788 0.1269115
0001a0 3a 95 0f bd 7e 64 82 bd 72 10 76 bd 4a 49 10 be
       -0.035054423 -0.063668236 -0.060074277 -0.14090458
0001b0 cd 80 f8 3c e8 ee 2d be 8e f0 4d 3e 32 d1 c5 bd
       0.030334854 -0.16985667 0.20111296 -0.096590415
0001c0 5d e9 e7 3d 80 d2 10 be 08 f4 6c 3c e7 c3 dc 3c
       0.113238074 -0.141428 0.014462478 0.026948882
0001d0 f0 fc b1 bd c0 17 8f bd 08 fd 91 3c b4 58 33 be
       -0.08690822 -0.06986952 0.01782085 -0.17514306
0001e0 dc 1a 09 3e 39 e6 7f bd 95 f1 c3 bd 21 b8 8c bd
       0.13389152 -0.062475417 -0.095675625 -0.06871057
0001f0 0a 55 3d 3e d1 5e 0b 3e 9b d3 02 3e c4 4c 09 bd
       0.18489471 0.13610388 0.12776034 -0.033520475
000200 08 64 02 be 46 ed 1b 3e a9 58 07 3e 46 34 c7 3d
       -0.12733471 0.15227231 0.13217415 0.09726767
000210 33 a5 36 3c bb 08 2e be b8 e3 c1 bd 97 8e 2e 3d
       0.011147785 -0.16995518 -0.09467262 0.042616453
000220 8e 39 6f 3d ee d2 ac bd 08 07 d6 3b 08 15 85 bd
       0.058404498 -0.08438669 0.0065316 -0.06498152
000230 1f de 12 be fe 76 38 be de da 01 3e 75 79 1b 3e
       -0.14342545 -0.18014142 0.12681147 0.15183051
000240 00 81 35 be e1 03 4c 3d bb 66 fa bd 3e 77 4e be
       -0.17724991 0.049808387 -0.122266255 -0.20162675
000250 dc da af bc 0a aa f1 3d f5 4a 0f be 66 52 74 bd
       -0.021466665 0.118000105 -0.13993438 -0.059648894
000260 d4 e5 3d bd 3e 4b 59 bd 71 60 22 3d c6 c2 a5 3d
       -0.04636176 -0.053050272 0.039642755 0.08093791
000270 8f a8 2f 3d 5a cf c9 3d 09 b9 52 3d e3 e3 26 be
       0.04288536 0.09854002 0.051445995 -0.1629787
000280 18 09 04 3e 51 d7 26 be 08 d5 35 bd 77 df 18 be
       0.12894094 -0.16293074 -0.044392616 -0.14928995
000290 e4 d1 92 bd 85 f7 1f be ed 74 e1 bd 8f 99 83 3d
       -0.0716894 -0.15621765 -0.1100863 0.06425773
0002a0 15 d4 10 3d 89 86 74 3d 96 dd 76 bd 96 3d 46 3e
       0.035358507 0.059698615 -0.060269915 0.1935943
0002b0 18 1c 35 be 21 b1 22 3d ac 8a 02 bd 39 65 fa 3d
       -0.17686498 0.039719705 -0.03187053 0.12226338
0002c0 77 2f fa bd 42 c0 3d be 06 3f ac bc fb 48 f1 bd
       -0.122160845 -0.18530372 -0.021026146 -0.11781498
0002d0 77 6d 34 3e 55 aa 08 3e 43 16 56 bd ad 84 6f bd
       0.17619883 0.13346227 -0.052267324 -0.05847614
0002e0 0d cb 34 be d6 b6 23 3e 9d d2 22 3b b3 33 51 bd
       -0.17655583 0.15987715 0.0024844774 -0.051074695
0002f0 76 41 80 bb 15 d9 46 3e 9a c6 36 bc 4b ce df 3d
       -0.0039140536 0.19418748 -0.011155749 0.10928019
000300 35 23 31 3c e4 6e 2c 3e ef c6 fb 3d 21 30 4a bd
       0.010811617 0.16839176 0.12293803 -0.049362306
000310 10 35 36 be 6a e3 36 3d 81 f8 2e 3e 38 9f b7 3d
       -0.17793679 0.044650473 0.17086984 0.089659154
000320 83 32 06 3d 60 c2 35 be 35 bc c4 bd 21 ac 9d 3c
       0.032763015 -0.1774993 -0.0960621 0.019247117
000330 df a6 1c 3e e0 c1 e7 bd 8b ab 28 3e 94 4d 8a bd
       0.15298031 -0.113162756 0.16471688 -0.06753078
000340 5b 4e 76 3d 6d 8a a9 bd 33 f8 0f be 0a 93 c9 3d
       0.06013332 -0.08278356 -0.14059524 0.098424986
000350 a2 d3 92 3d 39 87 2c 3e e8 38 b5 3c c6 7e ae 3d
       0.07169272 0.16848458 0.022121862 0.08520274
000360 91 ba 2b be 17 04 85 bc 14 c4 01 be 1f 1c 71 bd
       -0.16770388 -0.016237302 -0.12672454 -0.05886471
000370 57 e9 0d be be 3e 45 bd bd 49 f9 bd 8a 0a 2b 3d
       -0.13858543 -0.04815554 -0.121722676 0.041758098
000380 79 43 77 3d 8b 9a e5 bd aa 56 03 3e 0e 8c fb 3c
       0.06036708 -0.11211117 0.12826028 0.030706432
000390 24 e2 b3 bd bd 23 ae bd 72 0b c1 3d 15 a6 78 3e
       -0.08783367 -0.0850291 0.09426011 0.24282105
0003a0 6c b8 55 3d 24 1b ea 3d 4d a5 3c 3e 41 b2 d1 bb
       0.05217783 0.11430958 0.18422432 -0.0063994233
0003b0 59 26 03 3e 77 07 4f 3e 02 cf d3 bd c0 42 3a 3e
       0.12807597 0.20217691 -0.10342218 0.18189526
0003c0 af 57 ca 3d 22 0a 15 3e a9 5b 13 be e0 28 e8 bc
       0.098800056 0.14554647 -0.14390434 -0.028339803
0003d0 13 99 e9 bd f4 f3 92 bb 94 2e df 3d d4 a6 b4 3c
       -0.1140615 -0.004484648 0.10897556 0.022052206
0003e0 6d b6 cd 3d 10 7a 06 3d c1 24 99 3d 85 bb d6 bd
       0.100445606 0.03283125 0.074777134 -0.10484985
0003f0 94 23 7c bd 36 33 c5 bc 96 1b 1a 3e 1e ce 22 3d
       -0.061557367 -0.02407227 0.15049586 0.03974735

lstm.weight_hh_l0 f4 [96, 24]
000000 6e 06 22 3e 55 27 b4 3d d6 01 13 be f9 ca 28 bd
       0.15822765 0.087965645 -0.14356169 -0.041209195
000010 88 3e 07 3d e3 35 e1 bd 7b 18 81 3c 90 91 2c be
       0.03301862 -0.10996606 0.015758744 -0.16852403
000020 81 ce 2a be f2 48 de 3d cb 79 3c 3e 7f 38 5d be
       -0.16680337 0.10853757 0.18405835 -0.21603583
000030 cd 32 b5 bd ca 9d 17 3e 67 fe 1e bd ba 12 6d 3c
       -0.0884758 0.14806286 -0.038816836 0.014469797
000040 59 d0 0c 3e d6 5f 5f 3d de 10 99 b7 23 96 11 3e
       0.13751353 0.054534756 -1.8246876e-05 0.14217429
000050 e9 b6 5b 3d bc 73 3d 3d 64 8b 35 be ad 8a 25 bc
       0.053641234 0.04625295 -0.17728955 -0.010103864
000060 56 7a 10 3e 7b 9a 0c 3e 6b 87 09 3e aa 05 a0 bc
       0.14109167 0.13730805 0.13430564 -0.01953395
000070 b8 5f 14 bd 0a dd 35 bd d2 0b ee bd dd b3 c1 bd
       -0.036224097 -0.044400252 -0.11623348 -0.09458134
000080 a4 6a 82 bd de 5d 80 3d 00 ff 32 3d 4a ce e5 bd
       -0.06367996 0.06267904 0.04370022 -0.11220987
000090 1f fa 36 bd 93 c1 3a be 51 d2 70 bd f8 4c e8 3d
       -0.044672128 -0.18237905 -0.058794323 0.113428056
0000a0 25 dc b7 bb 08 e8 08 be b5 88 2c be 00 02 d7 bd
       -0.00561096 -0.13369763 -0.16849025 -0.10498428
0000b0 17 e7 32 be b4 de f4 bd e2 72 5b be 63 e9 04 be
       -0.17470966 -0.1195654 -0.21430543 -0.12979655
0000c0 33 64 1b 3e 38 8e 53 3e 18 7f 0a be 6f 80 f1 bc
       0.15174942 0.20659721 -0.13525045 -0.029480187
0000d0 f1 8e 30 be 64 50 88 3d 89 ec 5c bd cf 32 d8 3d
       -0.17242028 0.06655958 -0.053936515 0.10556566
0000e0 16 30 e0 bd a4 2d 26 3e 6c 13 39 be cb f2 35 3e
       -0.10946672 0.16228348 -0.18073815 0.177684
0000f0 22 dd d9 3d 37 4d 0a be 94 04 a3 bd 31 31 33 3c
       0.10637881 -0.13506018 -0.079598576 0.010937021
000100 de 72 c1 3c ae 9b d4 3d 2e a2 00 be 19 cd 71 3c
       0.023614343 0.10381256 -0.12561867 0.014758372
000110 97 02 66 3d 2c b5 c2 3c b4 e8 18 be ac 25 0d 3e
       0.056154814 0.02376803 -0.14932519 0.13783902
000120 ce ca 16 3e ef b3 db bd 40 d2 e3 3d 7f 6b ed bd
       0.14725801 -0.10727679 0.111240864 -0.11592769
000130 fb da cb 3c 6e 61 13 3d b6 b6 61 3e 3d 34 6c bd
       0.024884691 0.035981588 0.22042355 -0.057667006
000140 09 7e 15 3e 97 24 6f 3d 0a 9c 8d bd f3 57 eb bd
       0.1459886 0.058384504 -0.06914528 -0.11491384
000150 29 85 3f be ee 63 db bd 72 85 f0 3d 4a b8 2e 3e
       -0.1870314 -0.107124195 0.11744203 0.17062488
000160 7d ba 43 3b 7b c8 0e be 61 07 60 be 4a 39 b2 3d
       0.0029865794 -0.13943665 -0.21877815 0.08702333
000170 95 62 63 be c7 c2 94 bd 93 1a 5a be 40 f0 4e be
       -0.22205575 -0.07263713 -0.212992 -0.20208836
000180 88 e1 26 bd 37 61 ae bd 5a 3d 18 3e 06 9e 58 be
       -0.040742427 -0.08514636 0.14867154 -0.21154031
000190 dd cc 30 bd be f3 c0 3d 72 0f 63 3e c2 7a 2b bd
       -0.043164123 0.0942149 0.2217386 -0.041865118
0001a0 bd ce 44 3e 3a 3a 12 be b1 84 43 3d c7 54 82 3d
       0.1921949 -0.14280024 0.047733966 0.06363826
0001b0 a0 e7 9b 3d 33 e0 8e bd 81 22 11 be 14 f1 58 be
       0.07612538 -0.06976356 -0.14173318 -0.21185714
0001c0 77 29 dd 3c c9 b3 12 be 4b 91 36 be 2c 50 6c 3d
       0.026997311 -0.14326395 -0.17828862 0.057693645
0001d0 b4 95 64 be ea 61 41 3d a3 64 1a be b0 01 86 be
       -0.22322732 0.04721252 -0.15077452 -0.26173162
0001e0 67 dd 08 3d fe 12 61 3b 31 1a a9 3c 43 33 28 be
       0.03341427 0.0034343596 0.020642372 -0.16425805
0001f0 dc e6 04 be 62 d4 86 3c 60 06 5f 3e aa 9d 25 be
       -0.12978691 0.016458694 0.21779776 -0.16173425
000200 6f a1 43 3d 11 a4 0f be 8a 15 11 3e cd 81 86 3c
       0.047761377 -0.1402743 0.14168373 0.016419316
000210 93 63 06 be d6 c8 4d be 25 26 16 be 52 14 c3 3d
       -0.13123922 -0.20096144 -0.14662988 0.0952536
000220 df bb a1 bd 0d cf 2c bd ae b4 ba bd d7 3d 47 bc
       -0.07897162 -0.042189647 -0.09116493 -0.01216074
000230 6a f5 2a be a6 f6 c6 bd ad 55 16 be 6c 35 4e be
       -0.1669518 -0.09715013 -0.1468112 -0.20137566
000240 30 38 3d be db 71 2c be 50 72 59 be ba 51 58 3d
       -0.18478465 -0.16840307 -0.21235013 0.052812316
000250 60 3f 17 bc 8d 70 44 bd a8 ac 13 3e d1 09 0a be
       -0.009231418 -0.0479589 0.14421332 -0.13480307
000260 36 5d c5 bd 93 9d 17 bd 22 b0 5d 3d 0c 8e e7 3c
       -0.09636919 -0.03701551 0.05412305 0.028265975
000270 92 84 2f be 76 cd 47 be f4 48 e1 3c 32 cc 93 3d
       -0.17140415 -0.19511971 0.027500607 0.072166815
000280 a7 12 a6 3c 61 d0 14 bd 0d 53 59 be 5f a8 21 3e
       0.020272566 -0.036331538 -0.21223088 0.15786885
000290 a9 eb df bd d8 69 13 3e 05 d2 ce bd 0f e7 cc bb
       -0.109336205 0.14395845 -0.10098652 -0.0062531303
0002a0 9b ec 83 bd 4d 59 0a 3e d3 78 a8 bb bc 36 41 be
       -0.06441613 0.13510628 -0.0051413565 -0.18868536
0002b0 00 9c 75 3e 96 b5 97 bc ca da 1c be db 9f a0 3d
       0.2398529 -0.018519204 -0.15317836 0.0784299
0002c0 91 b7 73 3e 03 25 0b 3e 3a 6b 44 3e 6b a5 20 be
       0.23800494 0.13588338 0.19181529 -0.15688102
0002d0 3d 39 71 3d 74 b8 2a be 34 19 41 be 96 1d 9c bd
       0.058892477 -0.16671926 -0.1885727 -0.076228306
0002e0 94 e4 88 bd af 46 58 be e7 71 ca 3d 7c 7c 64 bd
       -0.06684223 -0.21120714 0.098850064 -0.05578278
0002f0 e3 53 30 be 46 f2 ef 3d 1b bb 04 be a5 4b 3a be
       -0.172195 0.11716132 -0.12962 -0.18192919
000300 20 e1 47 be 76 0f 46 3e 78 aa a4 3d 68 f2 0f be
       -0.19519472 0.19341835 0.08040327 -0.14057314
000310 c5 d9 93 bd f3 14 4a 3e 56 47 1c be fb 4a c9 bc
       -0.072192706 0.19734554 -0.15261588 -0.024571886
000320 66 8f 10 3e 0c 18 fe bd 9a cd 3f 3e c0 57 3f be
       0.14117202 -0.1240693 0.18730775 -0.18685818
000330 0e bb 4e 3e d4 cf 1e 3a 66 35 84 3c c0 57 b6 3d
       0.20188543 0.00060581905 0.016138744 0.08903456
000340 bc 55 3f be d3 46 85 bd 24 24 0b bd b6 be 26 3d
       -0.18685049 -0.06507649 -0.033970013 0.04070922
000350 9b d5 fd 3d ef 67 e5 3d bb b9 3c be 4e cc 27 3e
       0.12394258 0.112014644 -0.18430226 0.1638653
000360 4e 05 b3 bd 9a 71 60 3c e3 c7 4e 3d 83 78 f0 bd
       -0.08741246 0.01369896 0.050483596 -0.11741736
000370 39 01 12 3e c9 b8 3b bc 40 f7 7d bd 6b cc 8a bc
       0.14258279 -0.01145763 -0.062003374 -0.016943177
000380 af 51 04 3e a9 5c 2b be 8a 38 d7 3d 21 7a 81 be
       0.12921785 -0.16734566 0.10508831 -0.2528849
000390 8d c3 8a bd 8b 52 7d 3b 69 d8 97 3d a0 8b 42 3d
       -0.067755796 0.0038653936 0.07414324 0.047496438
0003a0 0c 9d 64 3e 09 3c 9d 3d 78 2c fb bd 89 cc d6 3d
       0.22325534 0.076774664 -0.12264341 0.10488231
0003b0 f2 6a 07 bd d9 94 35 3d 12 e5 8b bd 36 43 85 bd
       -0.033060975 0.044331405 -0.06830801 -0.0650696
0003c0 dd 8a 32 bd 61 e6 f8 bd 66 55 cb 3d 34 59 fa bd
       -0.04358946 -0.12153316 0.09928398 -0.122240454
0003d0 96 38 53 bb 1d 86 3b 3e e7 6e ac 3c 7b 6d 28 3e
       -0.0032229773 0.18312879 0.021048976 0.16448013
0003e0 5f 33 08 3e 8f 05 3a 3e a2 84 06 bd 76 63 ec 3d
       0.13300847 0.18166183 -0.032841332 0.11542408
0003f0 7e 3b 06 be 27 43 10 3e d8 55 6d be 61 19 20 be
       -0.13108632 0.14088117 -0.23177278 -0.15634681

lstm.bias_ih_l0 f4 [96]
000000 f1 f9 c4 bd c3 32 12 3d c4 31 1f be 14 97 16 3e
       -0.09617985 0.03569294 -0.15546328 0.14706069
000010 9c fd be 3d 90 86 9b 3d f5 37 23 3e ce 1e 0d be
       0.09325716 0.07594025 0.15939315 -0.13781282
000020 43 e1 2c 3e 6e e6 b1 3d d4 08 4c 3e 54 42 20 bc
       0.16882806 0.08686529 0.19925243 -0.009781439
000030 2a 9f e7 bb de db d2 3d b1 33 3d bd 23 26 ac 3d
       -0.0070685344 0.102958426 -0.046191875 0.084057115
000040 ef 4f 50 bb cf d5 d5 bd e6 b1 63 3e f3 1a 3d 3e
       -0.0031785925 -0.104411714 0.22235832 0.18467312
000050 0a 2a 67 3d 1f 2c 64 3e 7a fb 12 3e ae 44 e4 3d
       0.056436576 0.22282456 0.14353743 0.11145912
000060 59 5f ef bd ca 1d 08 bc 67 5f da 3d d1 58 ec bd
       -0.11688108 -0.0083078835 0.10662728 -0.11540378
000070 be 4e a2 3c 51 57 e1 3d 8d 33 17 3e 8b c3 0a 3e
       0.019812938 0.110029824 0.14765759 0.13551156
000080 1f 42 11 3e 65 10 64 3d b7 56 31 3e ac bb b2 3c
       0.1418538 0.055679698 0.17318235 0.021818005
000090 1b c4 02 3d 43 68 d1 3c bc 5c b2 bc e7 8a 4e 3d
       0.031925302 0.025562411 -0.021772735 0.050425436
0000a0 4e b7 cd 3c ec 7c 2f 3e 62 c2 8c 3d ed 54 3a 3e
       0.02511182 0.17137498 0.06873013 0.18196459
0000b0 c0 15 20 3e c3 85 da 3d 42 3a f2 bd c7 22 88 3c
       0.15633297 0.10670044 -0.11827518 0.016618146
0000c0 02 81 b4 bd de ba 38 3d a8 2a 43 be ea e8 c7 3d
       -0.08813669 0.045100085 -0.19059241 0.09761222
0000d0 9b 3c 0b be ca 69 0b 3e 6b 76 18 be 45 1d c5 3d
       -0.13597338 0.13614574 -0.14888923 0.09624723
0000e0 95 16 c7 3d 92 49 22 be 20 84 15 3e e3 97 32 bd
       0.09721104 -0.15848377 0.14601183 -0.04360188
0000f0 19 b3 40 3d ff ce 65 3c 59 05 0b be dc 10 05 3d
       0.0470458 0.0140264025 -0.13576259 0.03248678
000100 6c 4c 6a 3e 0d 6b 8e 3d 29 a9 4c be ea 99 ed bd
       0.22880715 0.06954012 -0.19986404 -0.116016224
000110 f2 27 93 bd b8 8f f8 bd 0f 3b de 3d ff e7 8d 3d
       -0.07185353 -0.12136787 0.10851108 0.06929015
000120 a0 45 6f 3d d2 b8 64 3e ac 16 d8 bc 5d 1e a3 bd
       0.05841601 0.22336128 -0.026377998 -0.07964776
000130 0d 00 af bd a1 e9 47 be b4 45 26 3e d7 35 0c 3e
       -0.085449316 -0.19522716 0.16237527 0.13692413
000140 85 81 be bc 6e fd 57 bd 05 68 39 3e c1 4f 10 3e
       -0.02325512 -0.052731924 0.18106087 0.14092924
000150 07 cb 23 3b 3e 70 0e be ae 6f 01 3e 0b 0e 15 be
       0.002499284 -0.13910004 0.12640259 -0.14556138
000160 38 f5 17 3e fc 77 2a be 9d 1c 19 3e ab db 6b 3e
       0.14839637 -0.16647333 0.14952321 0.23033015
000170 1d e6 23 3e 40 a0 45 3e 8e 93 0f bd 7e 26 92 bd
       0.1600575 0.19299412 -0.03505283 -0.07136248

lstm.bias_hh_l0 f4 [96]
000000 49 b2 bf 3d 27 10 2e bd 87 4e 2e bd 15 2d b7 3c
       0.09360177 -0.042495873 -0.04255536 0.022360364
000010 e8 5a 00 3c a9 56 65 3e b8 7d 8f 3d 5d 7f 34 be
       0.007834174 0.2239634 0.07006401 -0.1762671
000020 37 a6 c3 3d 00 79 b1 bd 9c ce 4e 3e ae 56 1a be
       0.09553187 -0.08665657 0.20196003 -0.15072128
000030 84 96 16 bc 5c 29 2d be 8e 83 1e 3e ae a0 02 3e
       -0.009191159 -0.16910309 0.15479872 0.12756607
000040 3b 09 78 3d 5a ef 28 3e 2d 1c 32 3e 49 5a a8 3d
       0.060555678 0.16497555 0.1739356 0.082203455
000050 0b c8 2c 3e 08 09 1c be 07 89 27 be ce f9 e9 bc
       0.16873185 -0.1523782 -0.16360866 -0.028561499
000060 7a 8d 3e 3e 95 9f 28 3e b6 7c 2f be 86 da 1f be
       0.18608657 0.16467126 -0.17137417 -0.15610704
000070 98 ff 3e 3e 66 05 74 3d 17 27 c8 3d c0 5e 0b bd
       0.18652189 0.05957546 0.09773081 -0.034025908
000080 5b 87 32 3e e4 57 2d 3d 77 53 ef 3d 4e 42 26 3e
       0.17434447 0.042320147 0.116858415 0.1623623
000090 9b 7a b1 3d f0 6a 04 3e 9f 6c 13 3e f0 28 0b 3e
       0.08665963 0.12931418 0.14396904 0.13589835
0000a0 40 63 35 3d 66 cc 28 be a2 93 bc 3d c7 6a 63 bd
       0.044284105 -0.16484222 0.09207846 -0.055521753
0000b0 36 40 02 be 23 9e 1c 3e 43 1a c6 3d 78 95 d8 3c
       -0.12719807 0.152947 0.09672978 0.02643846
0000c0 db 9d 45 3e 4a 04 62 3d 84 42 31 be aa eb 41 3d
       0.19298498 0.05517987 -0.1731053 0.047343887
0000d0 eb a5 6e 3e a6 df b1 bd 4b 16 ca 3c 95 b1 8b bd
       0.2330548 -0.08685236 0.024668833 -0.068209805
0000e0 9d bd 3c 3d 1c 86 a3 3c d4 a5 80 3e 3a ac 50 3b
       0.046079267 0.01996141 0.25126517 0.0031840936
0000f0 70 1b e0 3d ba d2 38 3e b5 fd 38 be 78 cd 08 be
       0.10942733 0.18049136 -0.18065532 -0.1335963
000100 7a 30 6b 3e 84 8d 31 3e 70 b5 dc bd 67 56 28 3d
       0.22967711 0.1733914 -0.10776794 0.041098025
000110 19 62 49 be d2 3e 86 bd 93 af 9f bd f3 9b 75 be
       -0.19666328 -0.06554951 -0.0779716 -0.23985271
000120 0c 46 53 bd f9 ef 46 3e 9c 5b 82 3e 64 09 7a 3d
       -0.051580474 0.1942748 0.25460517 0.06104411
000130 9d 09 ca bc a5 63 f7 bd 4e 68 8d bd ff cf fa bb
       -0.024662787 -0.120795526 -0.0690466 -0.0076541896
000140 d1 b8 68 3e d6 59 86 bd 68 47 43 3e 13 0a 03 bc
       0.22726752 -0.065601036 0.19070208 -0.007998007
000150 2c 8a 95 3d c5 c9 30 3d 62 e3 3e bd f8 34 a0 bd
       0.07301745 0.043161172 -0.046603568 -0.07822603
000160 e9 cd 28 3e fb 47 79 bc c5 5a 57 3e da 12 f8 bc
       0.16484798 -0.015214915 0.2103072 -0.030282427
000170 96 90 5d 3d 3c 8f 32 3e 78 70 a0 bd c1 bd c2 3a
       0.054092966 0.17437452 -0.07833952 0.0014857576

hidden2tag.weight f4 [3, 24]
000000 10 cf 68 be 7d 3f 55 3e 7d 0f 55 bd be 9b 83 bc
       -0.22735238 0.20825 -0.052016724 -0.016065475
000010 0a bd 56 be 59 0d 7a bd 5e f8 86 bd 89 e1 c9 3d
       -0.2097055 -0.061047886 -0.06590341 0.098574705
000020 69 ca cc bd 04 c4 28 3e 9e 7f 15 be 1c 38 61 3e
       -0.09999544 0.16481024 -0.14599463 0.2199406
000030 25 4e ff 3d ce 64 47 be c0 b8 76 3e 71 52 05 3e
       0.12466077 -0.19472048 0.24093914 0.1301973
000040 df bf 4f bd 1f 39 02 be 7f d3 0d be c8 13 bf bc
       -0.050720092 -0.12717102 -0.1385021 -0.023324862
000050 cb 2d 50 3d d1 65 87 bd 14 40 96 3d 3e 55 d2 3d
       0.05082492 -0.06611217 0.07336441 0.10270165
000060 79 d5 e0 3d e5 b0 ad 3c e6 19 4d 3d 2e 63 b2 bd
       0.10978217 0.021202514 0.050073527 -0.08710323
000070 bc 99 1e 3e 91 33 51 3e 68 7c 1a 3d 23 22 67 be
       0.15488333 0.20429827 0.0377163 -0.22571616
000080 70 14 99 3c 7d 82 65 be e9 b4 4d 3d 00 a0 d0 bc
       0.018686503 -0.22413059 0.050221357 -0.025466919
000090 59 6c 56 be 9d 11 a0 3d 55 cf 94 bc f9 b2 3c 3e
       -0.20939769 0.078158595 -0.01816527 0.18427648
0000a0 b2 cc a3 3c 3a e1 49 3e 94 de f5 bd 71 99 2e be
       0.019995067 0.19714823 -0.12005344 -0.17050721
0000b0 70 f6 df bd 67 a7 90 bc c6 d3 47 3e 12 97 53 be
       -0.10935676 -0.017657949 0.19514379 -0.20663098
0000c0 3b 96 0a 3b f6 95 06 be f0 de bb 3d 6c 5b 82 3d
       0.0021146673 -0.13143143 0.09173381 0.063650936
0000d0 2a 1d 60 be cf 96 cf 3d d1 e7 c3 3d f0 d7 38 3e
       -0.21886125 0.10136186 0.095657 0.18051124
0000e0 ea 46 3e 3e 5b 8e 46 3e cd 90 0b be fa 95 47 be
       0.18581739 0.19390242 -0.13629456 -0.19490805
0000f0 76 da 36 be a1 00 3c 3e ac 8d 19 bd 24 32 3a 3c
       -0.17856774 0.18359615 -0.037488624 0.0113644935
000100 3c a7 42 be 39 1f 34 be 72 7c 73 3c 93 10 34 be
       -0.19009107 -0.17590035 0.014861213 -0.17584448
000110 95 80 33 3e 25 1e 09 be fe 84 cd 3d 7a 63 4c 3e
       0.17529519 -0.13390405 0.10035132 0.19959822

hidden2tag.bias f4 [3]
000000 44 93 6e bc 35 95 33 bd 98 d1 ae bc
       -0.014561478 -0.043843467 -0.021340176
