model2.pt (torch, 11079 bytes, 6 tensors)

lstm.weight_ih_l0 f4 [80, 6]
-0.12948 0.15951972 0.23964643 0.0189555 -0.1393476 -0.061377622 0.06359988 0.124689616
0.046539158 0.0022905022 0.21509348 -0.30640972 -0.022643598 -0.1213208 -0.026814718 0.05893845
0.25893185 0.04822636 -0.13227084 0.120490946 0.008930749 -0.058967803 -0.14939564 0.14395182
-0.22449467 -0.17876264 0.031730577 0.038241636 -0.30140376 0.023318596 0.13914625 0.07448579
0.007817656 -0.18248664 0.111400425 0.00787182 -0.083661206 0.2681069 -0.033655997 0.11364129
-0.18845302 -0.17591412 -0.065115824 -0.21057864 0.13305318 -0.17425948 -0.24221234 0.046572946
-0.01732226 0.18121466 -0.21400361 0.27997473 -0.018994648 -0.20328277 -0.19510183 -0.20475794
0.023424968 0.14916416 0.23786105 -0.036076024 -0.1537545 -0.13999662 -0.11102934 0.035262596
0.22226548 -0.007005221 -0.10174604 0.019892218 0.20338948 -0.2565538 0.03271583 0.10016677
0.04166807 0.07314754 -0.12766524 -0.25724217 -0.24954063 -0.061359495 -0.30599985 -0.09249325
-0.0910804 -0.06829642 0.13001098 -0.015133034 -0.05815954 -0.039005358 0.30509698 0.25242102
-0.018828906 0.04392956 -0.064978346 0.21710746 -0.07796837 0.09152873 0.31024992 -0.11729566
0.12032461 -0.2269684 0.17096363 0.010668705 -0.042732943 -0.10019647 -0.26512817 0.011682416
-0.013856019 0.23443396 0.039252363 -0.10660414 -0.22121534 -0.21472338 -0.21222793 -0.042537246
-0.041296013 -0.22066063 -0.24125221 -0.053368505 -0.06997718 0.13936724 -0.08515464 0.11204126
0.06907291 -0.28282958 0.039943557 -0.13278271 -0.12140633 0.13328852 0.122506976 0.009755341
-0.16336778 0.10618149 -0.18321496 -0.11213454 0.020708542 -0.09324186 -0.014333341 0.3159101
0.10210409 0.025702214 -0.045263324 -0.029135961 0.09860017 -0.17953843 0.061769646 -0.012637852
0.12001053 -0.19921583 -0.14901651 0.14438246 0.0015891669 0.2382042 -0.24454474 0.16874947
0.025246471 -0.21602097 -0.038597785 -0.19629866 -0.23670653 -0.08725063 -0.15996072 -0.003931834
0.13389876 0.0929882 0.10374119 -0.10793749 -0.0076022414 0.0012342503 -0.05258274 -0.2747348
0.14338109 0.14102045 0.16304661 0.11111669 -0.022370445 0.15696846 0.20779866 0.0025840946
0.15697509 -0.18857442 -0.06951884 0.18983662 -0.197507 0.03645361 -0.023727661 -0.1485243
-0.06572188 0.007266282 0.12870614 0.1329694 0.24434786 -0.14318396 0.035580937 0.18035302
0.13564745 0.061162934 -0.12686785 -0.02918426 -0.099345356 0.057499778 -0.08037144 -0.08611169
0.137171 0.12952043 0.03756909 -0.15901887 0.21462034 0.1523362 0.23046611 -0.17496108
-0.11438448 0.089265026 -0.13243464 0.17837244 0.11278196 -0.015877474 -0.08193333 -0.13844243
-0.041673545 0.118154645 0.23356688 -0.058015794 -0.05334706 0.20419486 -0.025439724 0.16104577
-0.039545584 -0.086679064 -0.025091918 0.080099285 -0.011711162 -0.10437318 0.02392814 -0.042506184
-0.012546524 -0.0349477 0.043399617 -0.0742931 -0.14356926 0.103082515 -0.16438468 -0.065632254
-0.112603456 -0.0065119993 0.22177292 -0.09959419 -0.15540168 0.04944677 -0.058343854 0.017814046
0.036728494 -0.14919394 -0.07447402 -0.12932692 -0.08107155 0.053793035 0.01092233 -0.038384628
00000000: 6896 04be 2359 233e e065 753e 9148 9b3c
00000010: 23b1 0ebe 1a67 7bbd a740 823d 455d ff3d
00000020: d89f 3e3d 401c 163b 7741 5c3e bce1 9cbe
00000030: 117f b9bc 0a77 f8bd 8aaa dbbc 7269 713d
00000040: b792 843e 0189 453d 0272 07be f5c3 f63d
00000050: 4752 123c 3988 71bd 2cfb 18be 1b68 133e
00000060: eee1 65be 8e0d 37be ecf7 013d 43a3 1c3d
00000070: 9851 9abe a406 bf3c 5b7c 0e3e 028c 983d
00000080: a015 003c c7dd 3abe e825 e43d cef8 003c
00000090: 9156 abbd 4f45 893e dfda 09bd c4bc e83d
000000a0: d4f9 40be d522 34be 725b 85bd eda1 57be
000000b0: 183f 083e 1471 32be 8306 78be 46c3 3e3d
000000c0: 6ae7 8dbc 5690 393e c323 5bbe d958 8f3e
000000d0: aa9a 9bbc 5c29 50be c6c8 47be 11ac 51be
000000e0: b8e5 bf3c 7dbe 183e d991 733e 74c4 13bd
000000f0: d271 1dbe 465b 0fbe 5a63 e3bd 836f 103d
00000100: 9099 633e 0e8c e5bb 3a60 d0bd 01f5 a23c
00000110: 5545 503e 055b 83be 0901 063d 3c24 cd3d
00000120: 23ac 2a3d 61ce 953d adba 02be 3fb5 83be
00000130: 9487 7fbe 1854 7bbd 03ac 9cbe 1a6d bdbd
00000140: 5c88 babd fede 8bbd 9921 053e 8cf0 77bc
00000150: b338 6ebd 15c4 1fbd ac35 9c3e 543d 813e
00000160: 143f 9abc 7bef 333d 5e13 85bd 6b51 5e3e
00000170: e1ad 9fbd 6a73 bb3d 14d9 9e3e b538 f0bd
00000180: c06c f63d 676a 68be 1711 2f3e cbcb 2e3c
00000190: bd08 2fbd cf33 cdbd e1be 87be 9b67 3f3c
000001a0: 5b04 63bc 750f 703e 16c7 203d 4553 dabd
000001b0: 4686 62be 72e0 5bbe 4752 59be 893b 2ebd
000001c0: 0226 29bd dcf4 61be d20a 77be ef98 5abd
000001d0: 3250 8fbd 49b6 0e3e 8e65 aebd e375 e53d
000001e0: 1976 8d3d 0acf 90be db9b 233d 31f8 07be
000001f0: e2a3 f8bd c97c 083e f0e4 fa3d ded4 1f3c
00000200: e249 27be ae75 d93d b49c 3bbe cba6 e5bd
00000210: f6a4 a93c 97f5 bebd 64d6 6abc f8be a13e
00000220: f31b d13d 738d d23c 0966 39bd 8aae eebc
00000230: e3ee c93d ecd8 37be 2b02 7d3d fe0e 4fbc
00000240: 15c8 f53d 3cff 4bbe c997 18be ffd8 133e
00000250: 984b d03a cdeb 733e f069 7abe a9cc 2c3e
00000260: b0d1 ce3c 9a34 5dbe b618 1ebd 8402 49be
00000270: 3263 72be 75b0 b2bd becc 23be 9dd6 80bb
00000280: c21c 093e 9970 be3d 4376 d43d 550e ddbd
00000290: 391c f9bb 91c6 a13a 0061 57bd 0aaa 8cbe
000002a0: 7ed2 123e aa67 103e b1f5 263e 2691 e33d
000002b0: 3942 b7bc 57bc 203e 2cc9 543e ea59 293b
000002c0: 14be 203e a719 41be e55f 8ebd 8864 423e
000002d0: 463f 4abe 6150 153d 8360 c2bc c116 18be
000002e0: 3199 86bd fe19 ee3b 8bcb 033e 2129 083e
000002f0: 5336 7a3e d19e 12be 51bd 113d 76ae 383e
00000300: 2ae7 0a3e fc85 7a3d a5e9 01be d413 efbc
00000310: 9475 cbbd e384 6b3d c899 a4bd 535b b0bd
00000320: 8e76 0c3e 01a1 043e 0ce2 193d d8d5 22be
00000330: 6fc5 5b3e 05fe 1b3e 4fff 6b3e ff28 33be
00000340: 6942 eabd 95d0 b63d f29c 07be 44a7 363e
00000350: 3afa e63d 7a11 82bc a9cc a7bd dac3 0dbe
00000360: e1b1 2abd 10fb f13d 282c 6f3e f8a1 6dbd
00000370: 7282 5abd 7518 513e f866 d0bc 2fe9 243e
00000380: 8dfa 21bd cb84 b1bd 918d cdbc 180b a43d
00000390: 2ce0 3fbc 9bc1 d5bd f204 c43c f71a 2ebd
000003a0: f08f 4dbc 5225 0fbd ccc3 313d fb26 98bd
000003b0: d203 13be ed1c d33d 7554 28be 346a 86bd
000003c0: a49c e6bd 9c62 d5bb 7118 633e 0af8 cbbd
000003d0: 9e21 1fbe b288 4a3d f7f9 6ebd c3ee 913c
000003e0: 9e70 163d 4cc6 18be d685 98bd 476e 04be
000003f0: d708 a6bd 1656 5c3d 93f3 323c 3339 1dbd

lstm.weight_hh_l0 f4 [80, 20]
-0.31171602 -0.31954262 -0.13719182 0.34846127 -0.16304174 0.16412868 -0.03361049 0.26709318
-0.026366793 -0.08286967 -0.32762092 0.0010859314 0.0051731407 0.23415956 0.012384136 0.19738048
0.48899293 -0.12587559 -0.31611907 -0.028274022 -0.059049264 0.10366072 -0.056008123 -0.30368435
0.0160357 0.17316201 0.10154247 -0.01992454 0.26134104 -0.3034315 0.09401528 -0.012766285
0.1664538 -0.14562514 -0.01946262 -0.13880205 0.016961874 0.26797932 0.12580957 0.020144774
-0.035190348 0.019196557 -0.19607367 0.33702993 -0.05767618 0.18974307 0.073083736 -0.19298135
0.033078514 0.19102314 -0.2781852 0.09014737 0.29554826 0.1491905 -0.46616963 0.19796504
-0.21005383 -0.067164466 -0.1960559 -0.12252043 -0.5017784 -0.015229402 -0.006669226 -0.02056306
-0.0359077 0.19879858 0.14717422 -0.15913558 0.048487503 -0.1848483 0.020041997 -0.016116377
0.09519218 0.31104302 -0.15653533 0.28519115 -0.045833044 0.06003066 -0.07162147 -0.022856805
-0.41317463 -0.06269709 -0.090773486 -0.33395427 -0.13881943 0.0902393 0.19938613 0.16197129
0.2511859 -0.32600194 -0.16017012 0.2699879 -0.039807733 0.056178655 -0.3425539 -0.048404846
-0.18431038 0.122320384 -0.11575775 0.16389059 -0.25337976 0.036910333 -0.02990758 -0.16113827
-0.2310815 -0.04148252 0.14872798 -0.03297507 0.13156731 -0.2986225 -0.16042458 0.35938206
0.061016787 -0.12612996 -0.18919796 0.086857595 0.22186932 -0.16846141 0.115209326 0.08211753
-0.14783008 -0.2503873 0.07301208 0.29227975 0.18350723 -0.010857443 -0.037517633 -0.18861948
-0.3519671 -0.008442586 0.08938734 -0.3384246 -0.021280358 0.07399806 0.2203019 0.15960744
0.237753 -0.1816344 0.046954975 -0.3121697 0.061572973 0.17919174 0.16776115 0.28691083
0.120626174 -0.0038534694 -0.27003416 0.12014727 -0.115074545 0.02788318 -0.09926932 -0.3244941
-0.13410228 0.12566298 -0.21740471 0.16613337 -0.08207332 0.18959798 0.29882464 0.14780724
0.106891185 -0.16313802 -0.14535132 -0.11094829 -0.09914328 -0.17772488 0.075832374 0.35736033
-0.029030554 -0.11043056 -0.116059035 0.5988244 0.11672378 0.22637518 -0.03362865 -0.030978268
-0.028519278 0.16964364 0.056095466 -0.1352109 -0.45667636 -0.03729224 -0.30122185 -0.04772149
-0.10826711 -0.17632528 0.28464007 0.14880049 0.041378178 -0.05397441 -0.079710305 -0.104174785
0.024956677 0.36795336 0.059490327 0.2741467 0.3011158 -0.04645343 -0.29265296 0.018031081
0.07528449 -0.12751691 -0.26373166 -0.005468115 -0.076826334 -0.25888386 -0.11205299 0.04777801
0.30135205 -0.11154716 -0.09638907 -0.076028876 -0.06396056 -0.22545168 0.009385545 -0.22457586
-0.15869458 -0.104552224 -0.03308092 0.12288691 -0.28523213 -0.08376493 0.22788407 0.26960132
-0.02908286 -0.21113339 0.014115897 -0.039208174 0.12911044 -0.20637526 0.0832352 0.092340164
-0.25860867 -0.23220293 -0.05228428 -0.13718364 0.051709976 0.04819348 -0.102426924 0.098464526
0.043186877 -0.31383517 0.00024346076 0.102846995 0.12705512 -0.12327745 0.117367625 -0.035303727
-0.13100709 0.0013362552 0.07389669 -0.29961416 -0.029887306 0.21105938 0.049359147 -0.12335049
00000000: 3e99 9fbe 179b a3be 037c 0cbe 8469 b23e
00000010: 6af4 26be 5911 283e 27ab 09bd 70c0 883e
00000020: 2cff d7bc 93b7 a9bd eebd a7be d055 8e3a
00000030: 7383 a93b 86c7 6f3e d5e6 4a3c 1c1e 4a3e
00000040: 485d fa3e 88e5 00be 5cda a1be ec9e e7bc
00000050: a4dd 71bd 124c d43d c668 65bd 847c 9bbe
00000060: 4d5d 833c 6251 313e 80f5 cf3d ca38 a3bc
00000070: 7ece 853e 605b 9bbe 158b c03d ae29 51bc
00000080: dd72 2a3e c21e 15be 1370 9fbc 2022 0ebe
00000090: a1f3 8a3c 9634 893e 39d4 003e a706 a53c
000000a0: c123 10bd 1942 9d3c 89c7 48be 308f ac3e
000000b0: dc3d 6cbd 024c 423e edac 953d e79c 45be
000000c0: 567d 073d 929b 433e 4a6e 8ebe 2f9f b83d
000000d0: 1a52 973e 65c5 183e c9ad eebe 59b7 4a3e
000000e0: 5a18 57be 868d 89bd e1c2 48be feeb fabd
000000f0: 8d74 00bf be84 79bc 8689 dabb dd73 a8bc
00000100: f413 13bd db91 4b3e d7b4 163e 70f4 22be
00000110: d59a 463d df48 3dbe 1d2f a43c 7e06 84bc
00000120: 1ef4 c23d 0841 9f3e cc4a 20be 9304 923e
00000130: 6ebb 3bbd b6e2 753d 47ae 92bd 323e bbbc
00000140: a08b d3be 5567 80bd 73e7 b9bd 0efc aabe
00000150: ae26 0ebe 62cf b83d e12b 4c3e cddb 253e
00000160: 709b 803e bae9 a6be a303 24be db3b 8a3e
00000170: 6f0d 23bd 971b 663d 3a63 afbe 2944 46bd
00000180: dcbb 3cbe 1c83 fa3d 6612 edbd efd2 273e
00000190: feba 81be 4a2f 173d be00 f5bc 6e01 25be
000001a0: a1a0 6cbe 93e9 29bd 264c 183e de10 07bd
000001b0: 95b9 063e 0ce5 98be 5746 24be ed00 b83e
000001c0: bdec 793d 3628 01be 1cbd 41be 65e2 b13d
000001d0: b631 633e 2681 2cbe def2 eb3d 3c2d a83d
000001e0: c560 17be c432 80be 5b87 953d b1a5 953e
000001f0: 52e9 3b3e 6be3 31bc 17ac 19bd 7725 41be
00000200: 0835 b4be c652 0abc b610 b73d fd45 adbe
00000210: 2554 aebc 4b8c 973d d296 613e 2270 233e
00000220: 8675 733e 5efe 39be dc53 403d b5d4 9fbe
00000230: f133 7c3d 0a7e 373e 94c9 2b3e fae5 923e
00000240: db0a f73d 7d8a 7cbb eb41 8abe c60f f63d
00000250: 34ac ebbd 446b e43c b74d cbbd 1724 a6be
00000260: 1c52 09be ccad 003e 579f 5ebe de1e 2a3e
00000270: 0f16 a8bd f925 423e 8bff 983e c85a 173e
00000280: c4e9 da3d a70d 27be fad6 14be db38 e3bd
00000290: a20b cbbd 83fd 35be 014e 9b3d eff7 b63e
000002a0: 7cd1 edbc 6b29 e2bd 5cb0 edbd 8e4c 193f
000002b0: e10c ef3d e5ce 673e 32be 09bd 23c6 fdbc
000002c0: 43a1 e9bc 10b7 2d3e 5cc4 653d ba74 0abe
000002d0: 7cd1 e9be bfbf 18bd c039 9abe 9c77 43bd
000002e0: 26bb ddbd 9d8e 34be 58bc 913e 285f 183e
000002f0: 2a7c 293d 4514 5dbd 283f a3bd 9759 d5bd
00000300: f271 cc3c 6264 bc3e 21ac 733d f55c 8c3e
00000310: da2b 9a3e f445 3ebd 9cd6 95be ebb5 933c
00000320: c12e 9a3d cb93 02be d607 87be e02d b3bb
00000330: 2057 9dbd 6d8c 84be 0a7c e5bd e0b2 433d
00000340: d14a 9a3e d672 e4bd a267 c5bd 07b5 9bbd
00000350: c1fd 82bd cedc 66be d4c5 193c 37f7 65be
00000360: d580 22be 7a1f d6bd dc7f 07bd 22ac fb3d
00000370: f209 92be f38c abbd 715a 693e 2f09 8a3e
00000380: 2e3f eebc 5a33 58be 5d46 673c c098 20bd
00000390: 8735 043e 0954 53be 3777 aa3d d71c bd3d
000003a0: 5b68 84be 9bc6 6dbe 0b28 56bd de79 0cbe
000003b0: d7cd 533d 8766 453d 35c5 d1bd c5a7 c93d
000003c0: b9e4 303d 01af a0be 8049 7f39 72a1 d23d
000003d0: bd1a 023e e378 fcbd 705e f03d a49a 10bd
000003e0: b926 06be 4925 af3a 2657 973d 0767 99be
000003f0: 39d6 f4bc f31f 583e d12c 4a3d 2f9f fcbd

lstm.bias_ih_l0 f4 [80]
0.006940724 0.18151297 0.08418163 0.014536193 0.23860827 0.1838126 -0.14239956 0.05831691
-0.024835452 0.35685068 -0.057945326 0.14341107 -0.13738427 0.24125737 0.2557373 0.17746912
0.08269634 0.0067736236 0.09364444 -0.02165874 0.014452595 0.39953277 0.13145567 0.3984356
0.32037035 0.060584966 0.09513641 0.27608484 0.24155271 0.18659572 0.22527605 0.06210217
0.3612995 0.18575719 0.35928556 0.36985612 0.3485 0.57913524 0.37965325 0.4416349
-0.28376454 -0.28804424 0.039906126 -0.048896518 -0.29658797 0.27020997 0.23470694 0.03577652
-0.32988492 -0.041182086 -0.22716287 -0.010050175 -0.0055601117 -0.056219935 0.063924275 0.37753204
0.027236031 -0.31554666 -0.1834801 -0.04945908 0.18690126 0.058054004 0.012333265 0.46753907
0.19710134 0.025774226 0.4254482 0.25534672 0.22494724 0.32435662 0.42917728 0.25412035
0.06400587 0.0076575875 0.34590745 0.07229593 0.13095093 0.375308 0.33780882 0.26483276
00000000: 036f e33b 89de 393e 6b67 ac3d 3629 6e3c
00000010: ba55 743e 5f39 3c3e 31d1 11be b6dd 6e3d
00000020: b873 cbbc 22b5 b63e 1458 6dbd 5ada 123e
00000030: 76ae 0cbe 2c0c 773e 00f0 823e 77ba 353e
00000040: b35c a93d 46f5 dd3b a8c8 bf3d ab6d b1bc
00000050: 94ca 6c3c 8f8f cc3e 519c 063e c0ff cb3e
00000060: 9507 a43e f127 783d e1d6 c23d fe5a 8d3e
00000070: 9859 773e f312 3f3e c4ae 663e d85e 7e3d
00000080: 40fc b83e 2237 3e3e 47f4 b73e c85d bd3e
00000090: 986e b23e 3542 143f e961 c23e f81d e23e
000000a0: 9649 91be 897a 93be 9b74 233d b747 48bd
000000b0: 61da 97be f658 8a3e 0457 703e 668a 123d
000000c0: ade6 a8be 8cae 28bd 629d 68be 7da9 24bc
000000d0: 9931 b6bb e046 66bd bbea 823d e14b c13e
000000e0: 191e df3c 558f a1be 35e2 3bbe 9b95 4abd
000000f0: 0b63 3f3e 09ca 6d3d 7611 4a3c 4861 ef3e
00000100: efd4 493e 7824 d33c 59d4 d93e cebc 823e
00000110: 9258 663e 1212 a63e 20bd db3e 101c 823e
00000120: 8215 833d 80ec fa3b c81a b13e e30f 943d
00000130: 0018 063e 5f28 c03e 47f5 ac3e 2998 873e

lstm.bias_hh_l0 f4 [80]
0.13869447 0.077180535 0.09395137 0.011946618 0.4625363 0.18063386 -0.17507401 -0.21143594
0.35440224 0.114859164 -0.028601965 0.12157154 -0.2505285 0.1938306 0.2560582 0.1967082
0.21927941 0.020559117 0.15673152 0.21525714 -0.016528971 0.38718146 0.3042375 0.10629402
0.045872167 0.0034943193 -0.008022784 0.35009238 0.28917786 0.25203085 0.3211191 0.23611976
0.090084545 0.36245185 0.018549442 0.16322263 0.38341722 0.5429898 0.51627165 0.098580524
-0.16847134 -0.36095816 0.06036897 -0.16540998 -0.3641364 0.23441587 0.27439114 0.055766553
-0.17944263 -0.051928658 -0.06665569 0.21165763 0.18820721 0.22991335 0.23285867 0.3842749
0.23132072 -0.32069692 -0.06597156 -0.05175904 0.48502642 0.05334029 -0.053111117 0.44294897
0.16813128 0.28406274 0.12568823 -0.04978162 0.16493194 0.36706585 0.22868562 0.42447782
0.23167661 0.15922509 0.11174189 0.42155927 0.35629493 0.4100242 0.17205395 0.36343187
00000000: ec05 0e3e d410 9e3d 9369 c03d bfbb 433c
00000010: 8fd1 ec3e 15f8 383e 9a46 33be aa82 58be
00000020: 3674 b53e 483b eb3d ab4e eabc 80fa f83d
00000030: 4645 80be 877b 463e 0f1a 833e e06d 493e
00000040: c88a 603e 986b a83c 3a7e 203e 5e6c 5c3e
00000050: c467 87bc a63c c63e 05c5 9b3e aeb0 d93d
00000060: 74e4 3b3d f300 653b ff71 03bc 4f3f b33e
00000070: 1f0f 943e 300a 813e b969 a43e 61c9 713e
00000080: 3f7e b83d 4a93 b93e 00f5 973c d523 273e
00000090: 434f c43e 6101 0b3f 612a 043f 96e4 c93d
000000a0: c083 2cbe 82cf b8be 7445 773d 3c61 29be
000000b0: 1670 babe b70a 703e ff7c 8c3e 786b 643d
000000c0: cfbf 37be 25b3 54bd c782 88bd c7bc 583e
000000d0: 64b9 403e 686e 6b3e 8172 6e3e aebf c43e
000000e0: 57df 6c3e 6332 a4be 191c 87bd 4a01 54bd
000000f0: 6255 f83e 597b 5a3d 0b8b 59bd 35ca e23e
00000100: 9b2a 2c3e ac70 913e 6ab4 003e d0e7 4bbd
00000110: ebe3 283e 0ef0 bb3e 902c 6a3e 2855 d93e
00000120: a23c 6d3e e70b 233e efd8 e43d 9ed6 d73e
00000130: 4a6c b63e b1ee d13e e92e 303e be13 ba3e

hidden2tag.weight f4 [3, 20]
0.12511855 -0.46082005 0.10518966 -0.3193736 -0.31821182 0.3820477 -0.06396764 0.25670946
-0.42648265 -0.21213527 0.016083924 0.27841285 -0.17471698 -0.28185776 0.25892892 0.2238055
-0.04415783 0.44099382 0.31885648 0.19179444 -0.17687964 -0.13525175 0.08659756 0.022756254
-0.15630746 0.19248748 0.109279506 -0.29173708 -0.28523052 0.5403591 0.27543345 -0.102505505
-0.4246961 0.16296378 -0.06573024 0.27421084 0.49550506 -0.15841079 0.1573266 -0.3119508
-0.10158274 0.15658304 -0.4972074 0.12820497 0.38453218 -0.31488544 0.29074535 -0.20828712
0.45365018 0.09173684 -0.32643893 -0.2124869 0.18111543 -0.054929994 -0.38616458 -0.13316503
-0.53319013 0.21654941 -0.11629215 0.38653013
00000000: 141f 003e 9bf0 ebbe ad6d d73d f084 a3be
00000010: a9ec a2be c29b c33e 7701 83bd 6c6f 833e
00000020: ef5b dabe fd39 59be 6fc2 833c 218c 8e3e
00000030: 02e9 32be a94f 90be 5592 843e 452d 653e
00000040: d7de 34bd f1c9 e13e 2841 a33e c365 443e
00000050: f01f 35be 6f7f 0abe 105a b13d 536b ba3c
00000060: 100f 20be 701b 453e efcd df3d 905e 95be
00000070: bc09 92be f954 0a3f 9d05 8d3e 68ee d1bd
00000080: c471 d9be fadf 263e 939d 86bd 5d65 8c3e
00000090: d7b2 fd3e 7036 22be 391a 213e 04b8 9fbe
000000a0: 9d0a d0bd 4e57 203e f891 febe 2a48 033e
000000b0: 67e1 c43e aa38 a1be 93dc 943e 3849 55be
000000c0: d644 e83e 86e0 bb3d 0123 a7be 2a96 59be
000000d0: 5376 393e 46fe 60bd 5db7 c5be 6a5c 08be
000000e0: 267f 08bf 21bf 5d3e 942a eebd 47e7 c53e

hidden2tag.bias f4 [3]
-0.054597892 -0.16981132 -0.07053668
00000000: 0aa2 5fbd 05e3 2dbe 8975 90bd
