model.pt (torch, 11143 bytes, 6 tensors)

lstm.weight_ih_l0 f4 [80, 6]
000000 13 d2 50 3c 1a f1 40 be 88 33 a8 3d d3 a4 42 3d
       0.012745398 -0.18841973 0.08212954 0.04752047
000010 61 4e 32 be 72 56 5d be a0 ff 4b 3d 95 8b 1d 3d
       -0.17412712 -0.21615008 0.04980433 0.038463194
000020 02 5b 9c 3d 9e 11 82 be 1f 3a 2d 3e 8f 98 02 3c
       0.07634546 -0.25404066 0.16916703 0.007970943
000030 19 a3 98 3e 28 99 88 bd fb 29 82 bc 85 cd 27 be
       0.29811934 -0.06669837 -0.015889158 -0.16386993
000040 63 bb aa bd 8d a8 76 3d 8b 8c 2a 3c c0 60 32 3e
       -0.083365224 0.060219336 0.010409485 0.1741972
000050 71 84 cd bd 3b d5 65 be 90 0c 6d be 17 2c d0 3d
       -0.10035027 -0.22444622 -0.23149323 0.101646595
000060 c7 50 73 bd e0 0a 06 be 32 8f ab 3d cd e4 f2 bd
       -0.059403207 -0.13090086 0.08376922 -0.118600465
000070 34 f1 1b 3e 48 03 1a 3d ce 80 eb 3d ed f6 4b be
       0.1522873 0.037600785 0.11499177 -0.19918413
000080 ba dc 86 3d c2 3b fa bc 76 26 bc 3d 41 b0 6b 3e
       0.06585069 -0.030546073 0.09187023 0.23016454
000090 55 61 7d bd a9 fd 45 be a8 df 8d 3d 56 d0 87 3e
       -0.0618604 -0.19335045 0.06927425 0.26526135
0000a0 dd a4 07 3e 6b da 9c 3e 90 f7 7f be 05 fa c4 bd
       0.13246484 0.3063539 -0.24996781 -0.09618
0000b0 e0 a7 82 bc 9e 76 8f bd f6 90 81 3d 7b 95 33 be
       -0.01594919 -0.07005046 0.06326477 -0.17537491
0000c0 73 de 3f be 97 ab ee bc 38 f5 2d bd e2 3c 12 be
       -0.18737201 -0.029134555 -0.042470187 -0.14281037
0000d0 c9 07 2f 3d 1f 49 4e 3e 70 7a 6e be a8 10 44 bd
       0.042732034 0.20145081 -0.23288894 -0.047867447
0000e0 34 43 a3 3c 1b 7b ff 3d 8d 76 db 3d 49 fb d9 3c
       0.019929506 0.124746524 0.10715971 0.02660908
0000f0 1c 17 10 bd 9a 0c 08 3e ea 1e a7 3e 72 56 eb bb
       -0.03517829 0.13286057 0.32640773 -0.007181936
000100 47 5f 37 be 4e c4 6b 3d a8 60 d3 3d 27 81 07 3e
       -0.17907439 0.057560258 0.1032117 0.13232861
000110 8e 45 05 3e b1 5f 8a be b5 70 ba 3d e2 45 a1 3d
       0.13014814 -0.27026132 0.091035284 0.07874657
000120 8b 83 94 3e 69 17 59 3e ab ce 70 3e b6 d7 5c 3b
       0.2900661 0.21200337 0.23516338 0.003369791
000130 a7 32 a1 3d dc 85 f8 3d 06 2e 3d 3e 3c 8f e0 3c
       0.07870989 0.12134907 0.18474588 0.02741205
000140 7d fc 48 3d be 65 bd 3d f1 26 03 be 60 7b 3c be
       0.049068917 0.092479214 -0.12807824 -0.18406439
000150 59 bc c0 bd 06 22 bb bb bb cd 21 bd 58 f9 81 3e
       -0.094109245 -0.005710843 -0.03950284 0.25385547
000160 e0 d0 c7 3d 08 35 40 bd 7a cf e3 bd 1f 1f 9e bc
       0.097566366 -0.046925575 -0.111235574 -0.01930195
000170 af b8 f7 bc fc b7 0a be b3 08 4c be 5a 52 47 be
       -0.030239431 -0.13546747 -0.19925193 -0.19465008
000180 34 b9 92 3e d0 4d 14 3e 40 ee 28 be d2 1c 10 3e
       0.28656924 0.14482808 -0.16497135 0.14073494
000190 f6 91 0a 3d f8 08 80 be 37 e3 9c 3c 64 6b c7 bd
       0.033830605 -0.25006843 0.019151313 -0.0973728
0001a0 e0 9d 5a 3e a6 11 35 3c 19 6a 44 bd 46 a6 a4 3d
       0.21349287 0.011051571 -0.047952745 0.08039527
0001b0 05 22 87 3c 50 8c 63 3e 16 65 03 3e f8 ce e3 3c
       0.016495714 0.22221494 0.1283153 0.027808651
0001c0 6e f6 20 bd f9 54 55 bc fb 0e 12 be 55 67 28 be
       -0.039297514 -0.013020747 -0.14263527 -0.16445668
0001d0 fa 13 be 3d 63 29 0f 3d ab 27 1e be ff 5e ae 3d
       0.09281154 0.03495158 -0.1544482 0.08514213
0001e0 d8 f9 1a bd d9 1e 3e be 15 5d e5 3b aa 23 75 3d
       -0.037835926 -0.18566455 0.0069996216 0.059848465
0001f0 62 2f bd bc 9d c8 c7 bd 4d a0 a3 bd e8 b2 43 3d
       -0.023093883 -0.09755061 -0.07989559 0.04777804
000200 73 2d 3f be b7 26 09 be 39 86 d1 bd 86 da 16 3e
       -0.18669681 -0.13393675 -0.10230679 0.14731798
000210 64 2d 08 be 86 59 37 3e 28 8a a8 be 23 4c 60 3e
       -0.13298565 0.17905244 -0.32917905 0.21904044
000220 3d 1c fd 3b ee 13 2a 3d b2 9b 07 be 8f b5 9e be
       0.0077243135 0.041522913 -0.13242987 -0.30997893
000230 a7 d8 41 3d 99 6d 24 bd d9 0b c0 3d ad f5 47 be
       0.047325756 -0.040143583 0.0937726 -0.19527312
000240 82 38 4a 3c 88 21 7f 3d 46 b8 e0 bb 80 25 f8 bc
       0.012342574 0.062287837 -0.0068579046 -0.030291319
000250 52 5f 91 3d 9f 27 02 3d c4 ae e4 3a 11 61 55 3e
       0.07098259 0.031776067 0.0017447104 0.20837809
000260 0a 3f c8 bd f9 5f 10 be 0b 02 72 3e b1 0b ab bd
       -0.09777649 -0.1409911 0.23633592 -0.08351839
000270 d9 2b 11 bc fc 48 dd 3d 69 8f 54 bd 4a 34 b7 3d
       -0.008860552 0.10804936 -0.05189458 0.0894552
000280 01 7c 5f be 18 3f 9b 3d 4b 26 e4 bd 01 00 5d be
       -0.21824647 0.075803936 -0.11140116 -0.21582033
000290 d3 c4 f9 bd 16 a4 f5 3d 2b 23 52 3d b3 57 5f 3d
       -0.12195744 0.119941875 0.05130307 0.054526996
0002a0 f2 66 1e 3d e2 b1 5c 3e f3 db 17 3e 6d af 49 3d
       0.038672395 0.21552232 0.14829998 0.049239565
0002b0 f0 50 20 3e 67 d8 cd bd 76 c8 31 be 19 30 31 3e
       0.15655875 -0.10051041 -0.17361626 0.17303504
0002c0 2d 35 79 bd cf f0 15 bd c2 45 9b bd 16 70 65 3d
       -0.060841728 -0.036606606 -0.075816646 0.056015097
0002d0 df 0f 3b 3e af 99 a9 bd 37 a0 5e be 6b 90 5a bd
       0.18267773 -0.08281266 -0.21740805 -0.053360384
0002e0 a4 3d 42 be 61 8d 37 bd 17 1c c2 bd f6 99 b6 3d
       -0.18968827 -0.044812564 -0.09478014 0.089160845
0002f0 01 cb 0a 3c fd 64 5f bd c6 fb 22 bc b6 8b ac bd
       0.008471251 -0.05453967 -0.009947723 -0.08425085
000300 c7 53 ed bd 47 17 19 be 32 72 5f be 85 6e 45 bd
       -0.11588245 -0.14950286 -0.21820906 -0.048201103
000310 0d 08 26 be e3 c7 6f 3d 3a e8 4f be 1a 71 80 3d
       -0.16214009 0.058540236 -0.20303431 0.062715724
000320 a2 e9 33 be 1b e9 5d be 7c 83 59 3e 24 7a 2a be
       -0.17569593 -0.21670954 0.21241564 -0.16648155
000330 f7 c9 3d be 93 46 8f bc ad db 44 3e 87 5d a5 3d
       -0.18534075 -0.017489707 0.19224425 0.080744796
000340 fd 61 44 be 2a c0 e8 3d 3e 32 0d 3e f1 b4 39 bd
       -0.19178005 0.113647774 0.13788697 -0.045338575
000350 87 70 96 3c 34 3e ab 3d 5c 87 59 be 50 73 cd bc
       0.018364204 0.08361474 -0.21243042 -0.0250794
000360 90 cb 2e be 1e 15 2b 3e 94 b6 1b 3e f6 14 49 be
       -0.1706984 0.16707274 0.15206367 -0.19636902
000370 a1 90 62 be 28 3b fc bd 16 bf 8c 3d c8 e2 e6 3d
       -0.22125484 -0.12315971 0.06872384 0.11273724
000380 97 51 45 bd 2a 68 19 be 76 b1 68 be e2 bc c1 3d
       -0.048173513 -0.14981142 -0.22723946 0.09459855
000390 fd 12 38 3c f7 4d 79 be 18 90 2d be 18 0e 98 3d
       0.011234996 -0.24346147 -0.16949499 0.07424563
0003a0 65 a2 0b be 81 f7 89 3e 81 11 bc 3c c3 e7 af 3d
       -0.13636167 0.26946643 0.022957565 0.08589127
0003b0 d2 ec 61 3e 58 0b 00 3e d1 d1 c8 3d 60 00 d6 bc
       0.22062996 0.12504327 0.09805644 -0.026123226
0003c0 8b 4a 2d be e3 bd 44 3e f1 b8 f7 3d 33 f3 5b 3d
       -0.16922967 0.19213061 0.12095822 0.05369873
0003d0 5e 4c 7e be 47 ec 08 3e ba 3e ff 3b 8c 7d 04 bc
       -0.2483382 0.13371383 0.00778946 -0.008086573
0003e0 e8 0e e7 bc d5 07 82 bd 64 38 39 bd 0f cd 51 be
       -0.02820535 -0.0634915 -0.045219794 -0.2048838
0003f0 53 5a 23 be 53 96 2a be b5 74 7a 3e 8c 38 99 3c
       -0.15952425 -0.16658907 0.24458583 0.018703721

lstm.weight_hh_l0 f4 [80, 20]
000000 bf 4d 87 bd 61 bc 0b 3e e1 b4 ce 3d 33 1c a9 3e
       -0.06606626 0.1364608 0.10093094 0.33029327
000010 9c 07 ba 3e 6d 33 89 3e 3f 24 76 bd 6d e8 eb 3d
       0.3633393 0.26797047 -0.06009316 0.11518941
000020 42 15 3a bd df c5 38 be 99 98 11 be bc 1c 72 3e
       -0.04543043 -0.18044232 -0.14218368 0.23643774
000030 29 11 9f bd 1b 1d 12 3e b0 09 0e be 34 26 10 3e
       -0.07766945 0.14268915 -0.13870883 0.14077073
000040 59 82 39 be a0 ec 60 3c 0c 37 2b 3c 18 15 eb 3c
       -0.1811613 0.013728291 0.010450136 0.028696582
000050 85 c1 a7 3d 4f 65 2f 3e 91 6a 92 be 2e 06 35 3e
       0.08191208 0.1712849 -0.2859693 0.17678139
000060 63 69 5b 3e 56 ba bf 3e 51 92 ff bd 84 90 c4 bd
       0.2142692 0.3744685 -0.124790795 -0.09597877
000070 8e 47 04 bd 7e 48 8c 3d a6 00 89 3e e6 1d 88 3e
       -0.032294802 0.06849764 0.26758307 0.2658531
000080 2d 9b 11 3d 36 cd fa bc 1a 2e af bd ef 68 c0 bd
       0.035548378 -0.03061543 -0.08553715 -0.093950145
000090 a5 d9 02 be fd bc 94 be 2a cb 2c be 2a d4 40 3e
       -0.12778337 -0.29050437 -0.16874376 0.18830934
0000a0 64 97 49 be 9a ba 3e be 2f 58 0b 3d 18 a0 cd 3b
       -0.19686657 -0.1862587 0.034019645 0.006275188
0000b0 98 ae 73 3d c0 17 e3 bc a1 dd 2d 3d c3 45 40 be
       0.059492677 -0.027721286 0.04244769 -0.18776612
0000c0 48 be ab 3d 84 e8 4f 3e 69 49 8d bd 24 81 f1 bd
       0.08385903 0.20303541 -0.068987675 -0.1179221
0000d0 d5 da f8 3d 36 db 32 bc 64 d2 59 3e 91 8f 8b bd
       0.12151114 -0.010916522 0.21271664 -0.068144925
0000e0 54 77 0d 3e b7 72 c2 bd 96 4e 38 3d c7 c7 20 be
       0.13815051 -0.09494536 0.04499682 -0.15701209
0000f0 ed 6e aa bd fe 58 9b 3e 26 0e 7e be 3e 2f 40 3a
       -0.08321939 0.30341333 -0.24810085 0.00073312584
000100 63 c1 96 bd 6a 6c 61 3d 51 e5 9d bd 85 e4 ac bc
       -0.07361104 0.055035032 -0.07709754 -0.02110506
000110 5c d2 e1 bb 95 bf e1 3c 27 e2 0e 3e 45 8d 3a 3e
       -0.006891532 0.027557174 0.13953458 0.18217953
000120 da 0e 66 be ef 8e b7 3d 95 f8 2f bd f5 c5 a2 3d
       -0.22466603 0.08962809 -0.042961676 0.079479136
000130 a2 29 cc bd 8b e2 07 be 2d 08 53 3d 91 ad 63 3d
       -0.09968878 -0.13270013 0.05152147 0.055585448
000140 57 be 1f bd 1d 0e 27 3e 25 be 01 3e 7c 3c 54 bd
       -0.03899988 0.16313978 0.1267019 -0.051815495
000150 f2 0d 0d 3e ae 63 26 3d 0c bb 80 bd 98 6f 8c 3d
       0.13774851 0.040622406 -0.06285676 0.06857222
000160 3f 11 45 be a7 d9 b1 3e e7 9e 44 3d de e0 a9 3d
       -0.1924486 0.34736368 0.048003104 0.08294843
000170 88 33 86 3e 71 bf e6 3d 3b 74 78 3e 9a a9 e0 3d
       0.2621119 0.11266983 0.24263088 0.10969849
000180 12 80 14 3d 4f ee e3 3d 28 2d 0d be 53 96 a1 3c
       0.03625495 0.11129438 -0.13786757 0.019725
000190 92 93 83 3d 8a 97 36 3d e9 2f d2 bd e3 52 70 3c
       0.06424631 0.044578113 -0.102630444 0.014668199
0001a0 94 ea a1 3e d5 e0 fb 3e 79 8a 4e 3e e7 8e 59 be
       0.3162428 0.4919497 0.2017001 -0.21245919
0001b0 5d fa 5f 3e 77 9c b6 bd c4 8e a4 bd cd db 7a 3e
       0.2187285 -0.08916562 -0.08035043 0.2449791
0001c0 f0 a9 56 be e4 86 8b be 41 c0 af bd 66 1b 1c ba
       -0.20963264 -0.2725135 -0.085815914 -0.00059550104
0001d0 28 80 b8 bd 52 dc 27 be 75 1a 7a 3d fb 24 01 be
       -0.09008819 -0.1639264 0.061060388 -0.12611763
0001e0 e3 22 38 3e 1f 40 27 3e 57 fb 2f bd 17 91 ef ba
       0.17982058 0.16333054 -0.042964306 -0.0018277493
0001f0 72 70 1e bd 13 b1 22 3e 29 8f 87 be e4 f7 b2 bd
       -0.038681455 0.15887861 -0.2647641 -0.08738688
000200 6c b0 9d bd 9e ba 1d 3d e1 a6 5b bd 00 85 0b 3e
       -0.076996654 0.03850805 -0.053625945 0.13624954
000210 a1 4a 0b 3e 75 3d 5e 3e 8b 55 bf 3b 23 35 1c 3e
       0.13602687 0.21703131 0.005839055 0.15254645
000220 a5 5e 65 be 24 9a 7f 3e b8 58 93 3d 30 46 df bb
       -0.22399385 0.24961144 0.07194656 -0.006813787
000230 c6 bf b6 bd 2e 47 1a 3d a5 a5 8a 3d 18 a5 cf 3d
       -0.08923297 0.03766554 0.067698754 0.10138911
000240 e2 f3 6d bd 80 68 1b bd 55 47 0d be 97 50 a1 be
       -0.058093913 -0.037941456 -0.13796742 -0.31506798
000250 66 7a c6 bd 06 14 d1 3d df eb 0c 3e 82 cc a4 3e
       -0.096913144 0.10208897 0.13761853 0.32187277
000260 c5 67 0f be db 24 04 3e 49 b6 78 3d 55 d3 a9 3c
       -0.14004429 0.12904684 0.060720716 0.020730654
000270 7e 95 98 be 08 b0 d5 bd e6 f1 54 3d 20 a1 81 3e
       -0.29801553 -0.10433966 0.051988505 0.2531824
000280 1b f9 4b 3d be e7 8a 3c f2 15 47 be 20 af a5 bc
       0.049798112 0.016956206 -0.19441965 -0.020225108
000290 14 bd 28 be aa 3f 99 3e a9 24 c0 3d cb f8 98 be
       -0.16478378 0.29931384 0.09381992 -0.29877314
0002a0 1a 7a 50 be 9b fe 44 3e cf be 34 bd e2 c7 29 3e
       -0.20359078 0.1923775 -0.04412728 0.16580155
0002b0 29 60 30 be 0e 4a 10 be 9b 7a ae 3a ba 51 37 be
       -0.17224182 -0.1409075 0.0013311686 -0.1790227
0002c0 69 19 ae be ed d7 2a bd 9e 6a 8d 3e 5f 80 6a 3e
       -0.3400376 -0.04170983 0.27620405 0.22900532
0002d0 55 ec 54 3d 18 40 ac bc 54 88 8a be da b1 ad bd
       0.051983196 -0.021026656 -0.27057135 -0.08481188
0002e0 10 52 e5 bd 3c ef 1a be ce b4 ab be 54 66 3d 3e
       -0.11197293 -0.15130323 -0.3353638 0.18496066
0002f0 44 59 93 be 42 dd 97 3e f3 d0 49 3e e0 0b 76 3e
       -0.28779042 0.29660994 0.19708614 0.24027967
000300 3f e0 be bc 2c 04 9f 3e 3d 39 97 bc 3a 60 6b bd
       -0.023300288 0.3105787 -0.01845991 -0.057464816
000310 59 bf dd bd a9 c9 6e 3e 91 48 af be 5b 85 db bc
       -0.10827512 0.23319115 -0.3423505 -0.026796987
000320 5d c1 63 bd 4e 73 7c be e1 ca 18 be 99 e6 cc bd
       -0.055604327 -0.2465336 -0.14921142 -0.100049205
000330 ed b6 13 be 3a 22 83 3e 5b 34 ae 3d 1d aa 75 3e
       -0.1442525 0.2561205 0.0850608 0.23990674
000340 d8 c8 e1 3d 8c 41 81 3e 4b e5 f5 3d 55 22 fa bd
       0.11024636 0.2524532 0.12006625 -0.122135796
000350 b4 db 8c 3e e8 01 1a 3e db 51 30 3e 19 1d 02 bd
       0.2751137 0.1503979 0.17218725 -0.03176603
000360 4b 86 7c be 98 ac 17 be aa a2 90 3d 18 68 37 bb
       -0.24660604 -0.14811933 0.07062276 -0.0027985629
000370 6d 3c 5a 3e ae 97 9e bd 50 e4 90 bd f8 dd 0d bd
       0.21312113 -0.07743774 -0.07074797 -0.034635514
000380 e9 dd 64 3d 5b 76 ba 3d 42 ed 33 be 70 a4 8a bd
       0.055875693 0.09104606 -0.17570975 -0.06769645
000390 22 3b 5d bd e2 e0 18 3e 78 8c 9a 3e 0c a7 8a 3e
       -0.05401147 0.14929536 0.30185294 0.27080572
0003a0 6e dc 72 be a9 7b 2e 3c 3a 57 3b be c9 e5 fb 3c
       -0.237169 0.0106496 -0.18294993 0.030749219
0003b0 7e 48 a5 be 0f 20 42 3d 61 ba 5f bc 6c 12 84 be
       -0.3228187 0.047393855 -0.013655276 -0.25795305
0003c0 75 52 bc bd e0 b9 3c be 11 75 d3 be 90 2a 04 be
       -0.09195415 -0.1843028 -0.41300252 -0.12906861
0003d0 d7 93 be bd 15 fe df 3d 14 00 66 be 8b d5 67 bd
       -0.09305542 0.10937134 -0.22460967 -0.056600135
0003e0 67 a0 bc 3d ac 9f 82 3e cf 8e 80 3e 18 2f a8 3d
       0.09210282 0.25512445 0.25108954 0.082121074
0003f0 e8 4f 0d be 7b fc 4a bd 4e 5b 41 be 52 3d 5c bd
       -0.13800013 -0.04955719 -0.18882486 -0.053769417

lstm.bias_ih_l0 f4 [80]
000000 aa a7 52 3e 28 42 57 bd 76 e6 84 3e 7c fe fc 3d
       0.20571771 -0.052553326 0.25957078 0.123532265
000010 a9 f2 3a 3d 25 0d ec 3d 46 05 dc 3c eb c7 c2 bc
       0.045641575 0.115259446 0.026857983 -0.023776969
000020 37 97 5b 3e c2 92 91 3e cd a8 27 3d b4 6a c6 3e
       0.21444403 0.2843228 0.040932465 0.38753283
000030 b7 2e 01 3e 9b c6 9e 3e c9 7b 78 3e 98 ff b2 3e
       0.12615477 0.310109 0.2426597 0.34960628
000040 68 33 41 be 81 9c 5c 3e 81 77 46 3d aa 7e 58 3e
       -0.18867266 0.21544077 0.04845381 0.21142069
000050 95 90 fe bd a4 bc de bc ad 16 9c 3d fc 27 79 3e
       -0.124299206 -0.02718956 0.076215126 0.24331659
000060 13 4c 06 3f fc bf a9 3e 23 df 68 3d 62 34 a3 3e
       0.5245983 0.33154285 0.056853425 0.31875902
000070 83 0b 81 3e ab fb 85 3d 07 65 6f 3e 6e 2b 07 3f
       0.25204095 0.065421425 0.23378383 0.52800643
000080 cd d5 58 3e 8c d8 e1 bd 71 c5 a9 3e b6 58 53 bc
       0.21175309 -0.11027631 0.33158448 -0.012899568
000090 2e 20 26 bd 5d 5b 5d 3e e0 98 bc 3d ba 22 7b 3e
       -0.040558033 0.21616884 0.09208846 0.24524966
0000a0 35 99 0f 3e 59 e6 8f 3d b5 50 b7 3d b1 97 a2 3d
       0.14023288 0.07026357 0.089509405 0.07939089
0000b0 34 ec fe 3d e3 14 cb 3e 2e cc ad bd ce 45 bf 3d
       0.12447396 0.39664373 -0.0848621 0.09339486
0000c0 d8 b3 4b be 55 44 69 3e e9 df 80 3e cc 85 97 3e
       -0.19892824 0.22779973 0.2517083 0.29594266
0000d0 7f 01 a0 3d da d3 0e bd 0a 34 5a 3e 90 3f 0a bd
       0.07812785 -0.034870006 0.21308914 -0.033752024
0000e0 9a d9 bb bc d4 19 1f 3c 4d 02 ba 3d 7c d0 5e be
       -0.022930909 0.009710748 0.0908247 -0.21759218
0000f0 e4 f2 63 3d 54 3f 94 3e d4 f2 92 3e 80 1d 47 3e
       0.05565156 0.28954566 0.28700888 0.19444847
000100 21 0f cc 3e eb b5 92 3e f1 ea 44 bd 7a 01 7a bd
       0.39855292 0.28654417 -0.04807562 -0.061036564
000110 24 a0 b8 3e 0a 52 89 3d 6e 9b 20 39 e9 98 58 3e
       0.36059678 0.06705101 0.00015316691 0.2115208
000120 f4 ec 39 3e d1 35 14 3e b1 c0 0a 3e 22 02 96 3d
       0.18156797 0.14473654 0.13550068 0.073246256
000130 69 ba bd 3e cf 96 7d 3e ea 13 4b 3e 75 c7 a4 3e
       0.37056282 0.2476456 0.19831815 0.32183424

lstm.bias_hh_l0 f4 [80]
000000 a7 12 f0 3d fa a7 76 3d b2 3f ad 3e 01 32 b4 3e
       0.11722308 0.06021879 0.33837658 0.351944
000010 31 1b a5 3d d2 c1 50 3d d3 e3 a4 3c a3 6f 25 3e
       0.08061827 0.05096609 0.020128166 0.16155867
000020 6c bd 0e 3e 34 7f 8f bd e1 97 c4 bc ea 20 62 3e
       0.13939446 -0.07006684 -0.023998203 0.22082868
000030 fc 9c 6c 3e 6c a5 b2 3e f1 30 9b 3c 8c a1 73 3e
       0.2310676 0.34891832 0.018944236 0.23792094
000040 7b d6 66 bd 36 5c a9 3e 62 ef c0 3e 56 ea 58 bd
       -0.05635689 0.33078164 0.37682635 -0.052957855
000050 fe 56 88 bd 37 8a 45 3e cc e2 86 3e f6 2c 8c 3c
       -0.066572174 0.19291006 0.26344907 0.017111283
000060 c8 3e de 3e 50 02 99 3e 38 9d b0 3e 21 4c 92 3e
       0.43407273 0.29884577 0.34494948 0.28573707
000070 50 34 34 bd e6 64 a2 3e 06 ab 24 3e 02 4d a3 3e
       -0.0439952 0.31717604 0.16080865 0.3189469
000080 9b 30 59 3d 56 16 79 3d 66 44 a0 3e 10 55 62 3d
       0.05302487 0.060812317 0.31302184 0.055256903
000090 62 ca bb bd 84 d8 9f 3e 8d 12 d7 bc c8 17 d9 3d
       -0.09169461 0.31219876 -0.026253963 0.10600239
0000a0 84 c5 e3 3d 93 3a 7f bd 7b 82 40 be 10 29 4f 3d
       0.111216575 -0.06231172 -0.18799774 0.05057627
0000b0 14 bc 51 be 1f c8 20 3d 25 cb 1b be 7f ad 92 be
       -0.20481902 0.03925335 -0.15214212 -0.28647992
0000c0 94 47 59 3d d6 0a 11 3e d2 43 b6 3d 34 32 ac 3e
       0.053046778 0.1416429 0.088996544 0.33632052
0000d0 14 aa cc bd d4 7e 66 3d 31 03 d7 bd 3a 3c 11 bd
       -0.09993377 0.056273296 -0.104986556 -0.035457827
0000e0 1e 72 5a be 3a 27 1d 3e 46 a5 92 be ed a7 05 be
       -0.21332595 0.15346995 -0.2864172 -0.1305234
0000f0 be 4c cb bd a2 c5 89 3e cb 38 54 3e 6a 91 81 3d
       -0.09926747 0.26908594 0.2072479 0.06326564
000100 73 ef 8b 3e fd 21 f4 3e d1 b0 69 3e 93 b3 1c 3d
       0.27331123 0.4768218 0.22821356 0.038257193
000110 1a eb c4 3e ba b2 91 bb 3c a0 3f 3e 87 79 bd 3e
       0.38460618 -0.0044463547 0.18713468 0.3700678
000120 60 5c ab bd 30 42 30 3e a8 c8 a6 bc 77 d9 2a 3e
       -0.083672285 0.17212749 -0.020359352 0.16684519
000130 d4 1f a6 3c a6 df 77 3e e3 6b ce 3e d9 99 ec 3e
       0.020278849 0.24206409 0.40316686 0.46211126

hidden2tag.weight f4 [4, 20]
000000 fd 4c 97 3e 1e 22 7c 3e 5e 36 91 3e f9 18 8b 3e
       0.29550925 0.2462239 0.2836179 0.2716749
000010 f0 38 2b 3e a4 81 5d 3e 8b dc 2e 3e 52 db a0 bd
       0.16720939 0.21631485 0.17076318 -0.07854332
000020 8c d0 90 3e ee 61 0d be fb cf 04 3e 8f af 33 3e
       0.2828411 -0.13806888 0.12969963 0.17547439
000030 d9 9a 9b bc 44 cf 2e 3e 49 fc 24 be 8b 17 96 be
       -0.018994736 0.17071253 -0.16111864 -0.29314837
000040 e4 0f ce bd 01 7b 08 3e 8e 41 03 be c0 21 8e bd
       -0.10061625 0.13328172 -0.12817976 -0.06940031
000050 e2 60 3f bd 3e 23 c0 bc 33 0d 63 3e 4f 21 7f be
       -0.046723254 -0.023454305 0.22173004 -0.2491505
000060 d6 64 df be 49 57 b5 3c 54 c8 85 be de 62 62 be
       -0.4363162 0.022136347 -0.261294 -0.22108027
000070 8b a7 23 3d e6 d8 b7 3e 59 fa 48 3d 55 75 0d 3e
       0.039954703 0.35907668 0.049066875 0.1381429
000080 e6 a6 c3 3e 7b 07 ac 3e bf 29 40 3e 86 76 93 3d
       0.3821327 0.33599457 0.18765925 0.07200341
000090 c5 6f cd 3e 9c 78 79 3e 6e 00 70 be 04 9f ea bd
       0.40124336 0.24362415 -0.23437664 -0.11456111
0000a0 5f 6d 29 3e f7 96 2f be 0e 5f 10 3e 73 c0 fa bd
       0.16545628 -0.17147432 0.1409876 -0.12243738
0000b0 41 7b ca 3d 5b b6 45 3e 00 5e a3 bd fe 42 a1 be
       0.0988679 0.19307844 -0.079769135 -0.31496423
0000c0 48 f0 a2 be 34 e3 4d be 4d 45 6a 3d 61 06 a2 3e
       -0.31823945 -0.20106202 0.057194997 0.31645492
0000d0 3a 7f 0c be b5 14 da bd 69 6d 8d bd d2 29 1c 3e
       -0.13720408 -0.10648481 -0.06905634 0.15250328
0000e0 a3 ec 1e 3e 8c 34 7a be 6b 10 56 3d dd f9 63 3e
       0.15519957 -0.24434108 0.05226175 0.22263284
0000f0 b9 59 a2 be 92 42 63 be e7 e9 fc bd d7 48 cf 3d
       -0.31709078 -0.22193363 -0.12349301 0.10121315
000100 1a 1a 2a 3d 9d 00 a6 3d 4b 82 a4 3e 19 0b 8a 3e
       0.0415288 0.08105586 0.32130656 0.26961592
000110 2e 4d a3 3e b6 40 52 be 49 06 64 be 4d d2 b0 be
       0.3189482 -0.20532498 -0.22268023 -0.34535447
000120 d8 6e 2b 3e bd 34 e2 bd 70 ff a4 3d a4 a3 69 be
       0.16741502 -0.11045215 0.08056533 -0.2281633
000130 f2 c7 7a be f6 7e 2a 3c 41 bc f2 3d d0 ef 7c 3e
       -0.24490336 0.010406246 0.11852313 0.24700856

hidden2tag.bias f4 [4]
000000 f6 d8 69 bd fd 62 96 be 10 03 15 3e 42 82 c3 3d
       -0.057091676 -0.29372397 0.1455195 0.09546329
